trained_weights/checkpoint_actor.pth (torch, 540902 bytes, 18 tensors)

bn.weight f4 [24]
0.30755803 0.97532207 0.023212226 0.29132286 1.2950839 1.0624543 0.30066088 0.4306089
0.28195718 0.39702678 0.2934497 0.21905927 0.4456562 0.5463655 0.19516161 0.34917974
1.4202552 0.38934988 0.37489706 0.43635884 1.816133 1.6554579 0.3251228 0.6878657
00000000: 3f78 9d3e b5ae 793f 9127 be3c 4528 953e
00000010: 4fc5 a53f 81fe 873f 39f0 993e c578 dc3e
00000020: b15c 903e 1847 cb3e 0a3f 963e 1351 603e
00000030: 0d2d e43e 9cde 0b3f 72d8 473e b0c7 b23e
00000040: ecca b53f de58 c73e 82f2 bf3e 6d6a df3e
00000050: 0c77 e83f 0be6 d33f 7f76 a63e f717 303f

bn.bias f4 [24]
2.600305e-05 6.663148e-05 2.3068349e-06 9.468839e-07 -3.781945e-05 -1.8949158e-05 7.5451867e-06 2.1905855e-05
-4.395572e-05 3.514324e-05 -2.3542654e-05 5.3526896e-06 3.8084984e-06 -9.542182e-05 5.758558e-06 1.0737289e-06
8.82698e-05 3.235851e-05 -8.406772e-06 1.6424143e-05 -0.000113531925 -0.00017823845 5.561168e-06 -1.9317815e-06
00000000: 2021 da37 81bc 8b38 1fcf 1a36 5e2d 7e35
00000010: 53a0 1eb8 02f5 9eb7 a92c fd36 77c2 b737
00000020: 185d 38b8 c466 1338 777d c5b7 419b b336
00000030: 8195 7f36 331d c8b8 a339 c136 0b1d 9035
00000040: 7d1d b938 b0b8 0738 d00a 0db7 94c6 8937
00000050: fd17 eeb8 85e5 3ab9 129a ba36 c1a3 01b6

bn.running_mean f4 [24]
-7.480505 -0.7788674 4.8189898 0.0049072504 0.009237946 4.0716853 4.8189898 0.0049072504
-7.54967 -0.78615344 4.9673915 -0.015274455 0.011214337 4.07342 4.9673915 -0.015274455
-7.6270137 -0.79516345 4.997073 -0.039642837 0.00521205 4.067203 4.997073 -0.039642837
00000000: 4c60 efc0 db63 47bf 2a35 9a40 00cd a03b
00000010: c15a 173c 3f4b 8240 2a35 9a40 00cd a03b
00000020: e696 f1c0 5a41 49bf dff4 9e40 b541 7abc
00000030: 57bc 373c 7559 8240 dff4 9e40 b541 7abc
00000040: 7f10 f4c0 d58f 4bbf 06e8 9f40 8760 22bd
00000050: d8c9 aa3b 8726 8240 06e8 9f40 8760 22bd

bn.running_var f4 [24]
18.522831 1.1378268 319.09207 12.943124 28.0239 2.5548785 319.09207 12.943124
18.058977 1.1387469 323.67673 12.9507475 29.04697 2.589499 323.67673 12.9507475
17.640566 1.1385326 327.75903 13.117584 30.26946 2.7153893 327.75903 13.117584
00000000: c22e 9441 4fa4 913f c98b 9f43 0917 4f41
00000010: f230 e041 2183 2340 c98b 9f43 0917 4f41
00000020: c978 9041 75c2 913f 9fd6 a143 4336 4f41
00000030: 3260 e841 5aba 2540 9fd6 a143 4336 4f41
00000040: e11f 8d41 70bb 913f 28e1 a343 a0e1 5141
00000050: db27 f241 f0c8 2d40 28e1 a343 a0e1 5141

bn2.weight f4 [400]
0.9951516 0.80790436 1.3248805 0.7849366 0.3756862 1.1234789 0.85016805 1.145208
0.9557155 0.7014119 0.7980459 1.0541099 0.6690802 1.162255 0.85201776 0.54883426
0.5162393 0.8071945 0.9042955 1.2968128 0.7676643 0.9004279 0.7874106 1.2342623
0.9085061 0.8789177 0.5059015 0.48704302 1.0897332 0.8540025 0.82641196 0.86904216
0.8967171 0.528369 1.6693506 0.46173722 0.9495684 1.0160022 0.69585675 0.7411559
0.5364969 0.6320397 0.90344864 0.8057594 1.441076 0.5707729 0.98987025 0.8687024
0.7365724 1.2211856 0.7325321 1.3895234 0.62148446 0.6110939 0.7283757 0.67840874
0.7069504 0.6789177 0.73006874 0.6630556 0.6232207 0.71463925 1.0861079 0.84075516
0.57968163 0.5791188 0.6757012 0.7246525 0.88616663 0.62969714 0.8587772 0.87779367
1.1499088 0.7330637 1.2388531 0.76473707 0.88941705 0.83828986 0.64407223 0.9731131
0.8077284 1.3403131 0.70504427 1.079122 0.9967004 0.70718443 0.7384113 1.0568335
1.0750211 0.9888765 0.6791933 0.6356757 1.5885549 1.0756631 0.7276259 0.73914206
0.62761724 0.7095373 0.70595443 0.5926368 0.9842694 0.79864013 0.77482164 0.3313215
0.57061166 0.7510329 0.7328096 1.6212285 0.7797114 0.84718734 0.73529476 0.90067476
1.0653288 0.7633932 0.546168 1.2540984 0.90896994 0.8498608 0.9986387 0.5742252
0.8665369 0.8054868 0.9269085 0.666684 0.36596882 0.9731049 0.7543212 0.73672014
0.7427654 0.48533785 0.8739649 0.73957187 0.66275376 0.64751285 0.7454653 0.74530464
0.44336143 0.90994555 0.50852793 1.0207275 0.81440735 1.2871178 1.0365801 0.88955605
0.6593789 1.1124742 0.740051 0.66452056 0.74299806 0.64402664 0.65102935 0.5763639
0.6016309 0.48017067 0.7295926 0.70024836 1.1117862 0.44121143 0.71453315 0.63128847
0.93273115 0.98465586 0.6190183 1.1173787 0.8304068 0.5682105 0.9383829 0.5282874
0.5552933 0.4708053 0.8553973 0.83842367 0.6502044 1.1166037 1.0890776 0.21410798
0.5409898 0.92243105 0.77420914 0.65977144 0.6523129 0.746724 0.8209684 0.45027253
0.77071255 0.53608453 0.7170415 0.87586063 0.63684225 0.47200242 0.7542232 1.3776269
0.6916177 0.9143484 0.97399104 0.6127252 1.1656544 0.29413825 0.7978723 0.66738516
0.9187683 0.79752976 1.0801795 0.6261086 0.79807913 0.84945065 1.142761 0.8314676
1.6181219 1.237155 0.9418052 1.0155348 0.97135854 0.7005234 0.6440177 0.8312801
1.0743227 0.3558728 0.6595101 0.64285886 0.91372377 0.9277954 1.0323875 1.0303617
0.81687987 0.72564137 0.70786095 0.81827515 0.6069164 1.0516007 1.0523998 0.9113398
0.70697165 0.6879306 0.6467969 0.9520169 0.587818 1.5299659 1.0496644 1.6319796
1.0319066 0.5873312 0.5802305 0.8242064 0.38584998 0.5150992 0.9808428 0.6971706
1.2961051 0.6103252 1.5221084 0.6164598 0.64220047 0.8986302 1.0754167 0.8482414
00000000: 41c2 7e3f d2d2 4e3f af95 a93f 9bf1 483f
00000010: f159 c03e 28ce 8f3f 9da4 593f 2d96 923f
00000020: c5a9 743f bb8f 333f bc4c 4c3f 13ed 863f
00000030: d748 2b3f c6c4 943f d61d 5a3f 6780 0c3f
00000040: 4228 043f 4ca4 4e3f e97f 673f f6fd a53f
00000050: a685 443f 7182 663f be93 493f 4ffc 9d3f
00000060: db93 683f c000 613f c382 013f b45d f93e
00000070: 617c 8b3f e89f 5a3f bc8f 533f 8c79 5e3f
00000080: 408f 653f 3143 073f 48ad d53f d268 ec3e
00000090: ea16 733f 5c0c 823f ab23 323f 65bc 3d3f
000000a0: dc57 093f 5bcd 213f 6948 673f 3f46 4e3f
000000b0: 2e75 b83f 2c1e 123f 2368 7d3f 4863 5e3f
000000c0: 0290 3c3f cf4f 9c3f 3987 3b3f e7db b13f
000000d0: 9b19 1f3f a670 1c3f d476 3a3f 32ac 2d3f
000000e0: b4fa 343f 8dcd 2d3f c9e5 3a3f 03be 293f
000000f0: 648b 1f3f 99f2 363f 9505 8b3f bb3b 573f
00000100: 0466 143f 2141 143f c1fa 2c3f d482 393f
00000110: d1db 623f d533 213f d3d8 5b3f 16b7 603f
00000120: 3630 933f 10aa 3b3f bd92 9e3f cfc5 433f
00000130: d6b0 633f 2a9a 563f ebe1 243f f11d 793f
00000140: 4ac7 4e3f 618f ab3f c87d 343f ab20 8a3f
00000150: c227 7f3f 0a0a 353f 8608 3d3f 5246 873f
00000160: 4b9a 893f 0327 7d3f 9ddf 2d3f a5bb 223f
00000170: c455 cb3f 54af 893f b145 3a3f 6a38 3d3f
00000180: 86ab 203f 3da4 353f 6eb9 343f 0cb7 173f
00000190: 14f9 7b3f ae73 4c3f b65a 463f f9a2 a93e
000001a0: 9b13 123f b143 403f 6999 3b3f 6a84 cf3f
000001b0: 2b9b 473f 45e1 583f 473c 3c3f 9f92 663f
000001c0: b25c 883f bd6d 433f abd1 0b3f 4c86 a03f
000001d0: 41b2 683f 7a90 593f c9a6 7f3f 6c00 133f
000001e0: 5dd5 5d3f 6234 4e3f e049 6d3f cdab 2a3f
000001f0: 4460 bb3e 671d 793f 321b 413f b199 3c3f
00000200: e025 3e3f 347e f83e 2abc 5f3f 9554 3d3f
00000210: 3baa 293f 67c3 253f d0d6 3e3f 49cc 3e3f
00000220: 4500 e33e 31f2 683f e32e 023f 33a7 823f
00000230: 007d 503f 47c0 a43f a8ae 843f f2b9 633f
00000240: 0ecd 283f 8e65 8e3f fb73 3d3f 051e 2a3f
00000250: 1f35 3e3f eede 243f dca9 263f 968c 133f
00000260: 7c04 1a3f eed8 f53e 95c6 3a3f 7a43 333f
00000270: 034f 8e3f 77e6 e13e a5eb 363f 1f9c 213f
00000280: 78c7 6e3f 6812 7c3f fc77 1e3f 4406 8f3f
00000290: 8a95 543f 3e76 113f dd39 703f d83d 073f
000002a0: b427 0e3f 640d f13e 51fb 5a3f efa2 563f
000002b0: cc73 263f dfec 8e3f e566 8b3f 1f3f 5b3e
000002c0: 4f7e 0a3f 7124 6c3f 9232 463f c8e6 283f
000002d0: fafd 263f 4e29 3f3f fc2a 523f 1f8a e63e
000002e0: 6b4d 453f d63c 093f 0890 373f 6738 603f
000002f0: 1808 233f 4daa f13e c614 413f 1456 b03f
00000300: dc0d 313f bd12 6a3f 7a57 793f 8fdb 1c3f
00000310: 2a34 953f 4a99 963e 5c41 4c3f c1d9 2a3f
00000320: 6634 6b3f e92a 4c3f 5243 8a3f a748 203f
00000330: ea4e 4c3f 9975 593f fe45 923f 10db 543f
00000340: 9e1e cf3f 185b 9e3f 251a 713f 0bfd 813f
00000350: f4aa 783f 8055 333f 58de 243f c6ce 543f
00000360: 6883 893f f634 b63e a7d5 283f 6692 243f
00000370: cde9 693f 0084 6d3f 4625 843f e4e2 833f
00000380: 0a1f 513f a2c3 393f 6036 353f 7b7a 513f
00000390: e05e 1b3f da9a 863f 09b5 863f 914d 693f
000003a0: 18fc 343f 381c 303f 7b94 253f 61b7 733f
000003b0: 3e7b 163f ecd5 c33f 675b 863f b5e4 d03f
000003c0: 8415 843f 565b 163f fc89 143f 31ff 523f
000003d0: 218e c53e 8bdd 033f 8418 7b3f c679 323f
000003e0: c6e6 a53f 463e 1c3f 73d4 c23f 4fd0 1d3f
000003f0: 4067 243f a10c 663f 41a7 893f 5926 593f

bn2.bias f4 [400]
-1.1033345 -0.851842 -0.017010326 -0.690344 -0.562187 -0.0995917 -0.87098473 -0.06869529
-0.75431186 -0.93254834 -0.4752161 0.04885011 -1.1233919 -0.93377876 -0.37913117 -0.32413486
-0.3960008 -0.31222862 -0.67468965 -0.8430237 -0.9448631 -0.9298593 -1.0217038 -0.2031803
-0.6154853 -0.59807354 -0.21756051 -0.57666725 -0.63508534 -0.8004814 -1.026164 -1.5170131
-0.8064767 -0.9924146 0.38946927 -0.5690063 -0.36805812 0.4377796 -0.97859675 -0.81384903
-0.5878002 -1.1704252 -0.6517536 -0.6537797 -0.13144225 -0.68171257 -0.6508269 -1.1334676
-0.78482795 -0.18621418 -0.7696696 -0.6881626 -0.7265683 0.22515786 -0.971069 -0.60518676
-0.15452613 -1.4216659 -0.79672116 -1.0770231 -0.67451465 -0.23472133 -0.20093739 -0.6396614
-0.5778695 -0.80699843 -0.8307578 -1.0886105 -0.76817685 -0.64385927 -1.0317185 -0.7450912
-0.35097584 -0.9035991 -0.74950075 -0.64013445 -0.70840716 -0.81741375 -0.9156003 -0.95013446
-1.1438925 -1.208838 -1.0063177 -0.58185107 -0.65571946 -1.3262389 -0.9699273 -0.80457246
-0.8245559 -0.5982705 -1.1480871 -0.73072135 -0.3300463 1.0742147 -0.7489415 -0.5004844
-0.59720725 -0.9453412 -0.7053232 -1.2149546 -0.7857223 -0.3797935 -0.43669266 -0.20834705
-0.69192994 -0.65639764 -0.72765243 0.45743042 -0.8671581 -0.29777962 -0.84022593 -0.5387566
-0.8600602 -0.89154977 -0.9426042 -0.80875546 -0.619848 -0.33497056 -1.2104127 -0.7345781
-0.7733251 -0.986425 -0.8024651 -0.97569335 -0.45459273 -1.03903 -0.9866492 -0.62531704
-0.415476 -0.8520598 -1.1347787 -0.71603554 -0.9550798 -0.970315 -0.47683802 -1.2406895
-0.61997753 -0.5827142 -0.25383854 -0.4553727 -1.0079287 -0.082127966 0.25044635 -1.3492014
-0.66112405 -0.5831344 -0.18350734 -0.488279 -1.0032912 -0.58360857 -0.4840197 -0.88357925
-0.7959256 -0.55357885 -0.74232656 -0.56021243 -0.4567711 -0.034782566 -0.7150807 -0.89836293
-0.5064524 -0.46132174 -1.005054 -0.5651848 -0.8345114 -0.6518483 -0.8344471 -1.2977711
-0.5348974 -0.9728609 -0.34416202 -0.61242014 -0.4215723 -1.2476329 -1.0598454 -0.47608352
-0.84247994 -1.0296328 -0.96608853 -0.77216375 -0.61357534 -0.89198655 -0.8738067 -0.50905955
-0.8873993 -0.46968517 -0.7189244 -0.3309406 0.049781498 -0.46632385 -0.9025862 -0.88233817
-0.67116094 -0.8331966 -0.6632642 -1.2084144 -0.43063986 -0.33379814 -0.9690779 -1.037261
-0.7939896 -0.5847933 0.2613244 -0.46278784 -0.6481891 -0.9841809 -0.9896966 -1.3087935
-0.55324686 -0.28335506 -0.47806203 -0.60808104 -0.36852872 -0.20773557 -0.72137845 -1.0250474
-0.6900935 -0.37766743 -0.5896179 -0.43794113 -0.77568716 -0.39542 -1.2406194 -0.31848696
-0.6873871 -0.86421627 -0.9144038 -0.7473301 -0.65836215 -0.6022023 -0.99875873 -0.70368797
0.021954522 -1.2410364 -0.98798627 0.38040307 -0.14064023 -0.5939228 -0.20604716 -0.43931574
-0.71003413 -0.8179901 -0.6511524 0.0068678004 -0.9691008 -0.6486109 -0.53372324 -0.66415405
-0.3162226 -0.72564816 -0.524907 -0.460101 -0.08043888 -1.1524886 -0.5787622 -0.7844929
00000000: 113a 8dbf 5112 5abf 3d59 8bbc 62ba 30bf
00000010: 7deb 0fbf bcf6 cbbd dbf8 5ebf 1eb0 8cbd
00000020: 951a 41bf 7dbb 6ebf 864f f3be 0e17 483d
00000030: 4ecb 8fbf 200c 6fbf 7b1d c2be 01f5 a5be
00000040: 9ec0 cabe 6edc 9fbe 76b8 2cbf 67d0 57bf
00000050: 8ce2 71bf 420b 6ebf 31c7 82bf 7f0e 50be
00000060: 7290 1dbf 591b 19bf 2fc8 5ebe 77a0 13bf
00000070: f494 22bf 59ec 4cbf 5859 83bf 7c2d c2bf
00000080: 4275 4ebf e20e 7ebf 8468 c73e 66aa 11bf
00000090: 1d72 bcbe a624 e03e 5185 7abf 6958 50bf
000000a0: 137a 16bf 7ed0 95bf 53d9 26bf 1b5e 27bf
000000b0: cc98 06be b784 2ebf 979c 26bf 7715 91bf
000000c0: 7cea 48bf eeae 3ebe 1109 45bf 6d2b 30bf
000000d0: 6100 3abf c88f 663e fa97 78bf 85ed 1abf
000000e0: 193c 1ebe 26f9 b5bf ebf5 4bbf e5db 89bf
000000f0: feac 2cbf ca5a 70be 88c2 4dbe d9c0 23bf
00000100: 41ef 13bf 7397 4ebf 8bac 54bf 9757 8bbf
00000110: 3da7 44bf f6d3 24bf 5a0f 84bf 4cbe 3ebf
00000120: 1bb3 b3be 4552 67bf 48df 3fbf dadf 23bf
00000130: 2c5a 35bf 0742 51bf c864 6abf 033c 73bf
00000140: 126b 92bf 34bb 9abf 05cf 80bf 31f4 14bf
00000150: 3bdd 27bf 32c2 a9bf 284d 78bf 76f8 4dbf
00000160: 1816 53bf 4128 19bf 85f4 92bf 8e10 3bbf
00000170: d4fb a8be de7f 893f a1ba 3fbf bf1f 00bf
00000180: 93e2 18bf e201 72bf 1090 34bf a283 9bbf
00000190: 1925 49bf 4b74 c2be 2e96 dfbe ee58 55be
000001a0: 5222 31bf ad09 28bf 6e47 3abf 5234 ea3e
000001b0: 13fe 5dbf 9276 98be 0c19 57bf f4eb 09bf
000001c0: e82c 5cbf 9b3c 64bf 824e 71bf 990a 4fbf
000001d0: 5cae 1ebf 4381 abbe ceee 9abf 4f0d 3cbf
000001e0: a2f8 45bf 5986 7cbf 5a6e 4dbf 0ac7 79bf
000001f0: 61c0 e8be effe 84bf 0b95 7cbf c714 20bf
00000200: 45b9 d4be 9720 5abf 6e40 91bf 1b4e 37bf
00000210: 1c80 74bf 9066 78bf 1d24 f4be eace 9ebf
00000220: d9b6 1ebf c22c 15bf 20f7 81be 9c26 e9be
00000230: cf03 81bf b532 a8bd 813a 803e a2b2 acbf
00000240: 6d3f 29bf 4c48 15bf 59e9 3bbe b5ff f9be
00000250: d96b 80bf 5f67 15bf 6ed1 f7be 4032 62bf
00000260: c8c1 4bbf 58b7 0dbf 1d09 3ebf 156a 0fbf
00000270: e7dd e9be 2a78 0ebd 870f 37bf 1dfb 65bf
00000280: dda6 01bf 5d32 ecbe 9ca5 80bf f3af 10bf
00000290: 8aa2 55bf 88df 26bf 539e 55bf 5d1d a6bf
000002a0: 09ef 08bf 690d 79bf 0136 b0be 91c7 1cbf
000002b0: 53d8 d7be 6fb2 9fbf 04a9 87bf 38c1 f3be
000002c0: c4ac 57bf 02cb 83bf 9451 77bf 86ac 45bf
000002d0: 4613 1dbf 3b59 64bf ccb1 5fbf ba51 02bf
000002e0: 9a2c 63bf 937a f0be 6e0b 38bf 0c71 a9be
000002f0: afe7 4b3d 00c2 eebe e40f 67bf eae0 61bf
00000300: 34d1 2bbf 5f4c 55bf afcb 29bf 53ad 9abf
00000310: d47c dcbe 97e7 aabe 7d15 78bf f8c4 84bf
00000320: e742 4bbf 04b5 15bf 50cc 853e 87f2 ecbe
00000330: b9ef 25bf 48f3 7bbf c25c 7dbf 8c86 a7bf
00000340: 96a1 0dbf ea13 91be 8cc4 f4be 33ab 1bbf
00000350: ccaf bcbe a2b8 54be 42ac 38bf c134 83bf
00000360: f8a9 30bf a05d c1be 33f1 16bf d239 e0be
00000370: 6f93 46bf 7e74 cabe 9ecc 9ebf b910 a3be
00000380: 9af8 2fbf 473d 5dbf 5e16 6abf 0751 3fbf
00000390: 6c8a 28bf ee29 1abf a7ae 7fbf e524 34bf
000003a0: f8d9 b33c 48da 9ebf abec 7cbf 31c4 c23e
000003b0: fe03 10be 530b 18bf 07fe 52be feed e0be
000003c0: ccc4 35bf cd67 51bf ecb1 26bf 490b e13b
000003d0: fd16 78bf 5d0b 26bf 16a2 08bf 0006 2abf
000003e0: eee7 a1be 14c4 39bf 4e60 06bf 5c92 ebbe
000003f0: 24bd a4bd bf84 93bf c229 14bf 87d4 48bf

bn2.running_mean f4 [400]
0.17924017 0.03864426 -0.03986771 0.15637308 0.009153472 -0.0038200582 0.0078628985 -0.1265315
-0.059872642 -0.18396802 -0.01915272 -0.1970646 0.031044753 -0.00043919787 0.07216051 -0.12740636
-0.0013683486 -0.056967605 -0.12186226 0.15925056 -0.20144098 0.14452349 -0.050362643 -0.11419423
-0.19824487 -0.19373578 -0.07053063 0.13168088 0.040380336 -0.14916274 0.17231116 0.16747689
0.08481077 0.19978622 0.13576603 0.02911946 0.14094366 -0.11641499 -0.026250942 -0.10662625
-0.035965014 -0.16153291 0.13871911 -0.08090719 0.06290792 0.1872626 0.069048956 0.010741363
0.20274477 -0.2021001 0.18910493 -0.17638472 0.20229608 0.016108682 -0.12516709 -0.06971475
-0.10476417 0.12237615 0.17540002 0.123463325 0.14919317 0.1967828 -0.18001726 0.08564933
0.0168029 0.1231702 0.057625264 0.0058718226 0.13575152 -0.0827145 -0.15505816 -0.14633346
0.14646892 0.004456608 -0.16603252 0.070621215 -0.006690899 -0.121099375 0.17874622 0.118527666
0.17309952 -0.03297224 -0.12606367 -0.17290008 0.023859007 -0.14298089 0.12213306 -0.18525453
-0.14519747 0.029721737 0.050034106 -0.026930885 -0.042974155 -0.10383165 -0.059103932 0.026500927
-0.1832191 -0.035425164 -0.03249461 0.0044207624 0.15172687 -0.17112008 0.07046959 0.07566138
0.056754734 -0.05842428 0.11822625 -0.14461294 -0.082206905 -0.0055957683 -0.029925266 -0.20185603
0.10927904 0.12069106 -0.18133117 0.00033989619 -0.1718929 -0.03713645 0.024558393 0.17752321
0.14335518 0.105119795 0.02687095 -0.18824606 -0.06588051 0.18204997 0.016796753 -0.046135396
-0.07072551 0.09843409 0.12855224 -0.017858744 0.059904784 0.1504205 0.1366585 0.10585504
0.13935776 0.074212864 0.055750325 -0.20082323 -0.040115952 -0.060915384 0.04574687 -0.05840239
-0.18641545 0.17081256 -0.08863357 -0.19400395 -0.08483085 0.042696994 -0.069480315 -0.20377718
0.067990676 0.07854554 0.18999408 -0.20173575 -0.038850967 -0.07783959 -0.07072228 0.004275728
0.19025263 -0.02130729 0.17487888 0.028308913 -0.10627865 -0.01964345 0.10510866 0.12072322
-0.06782849 -0.024965027 -0.1706648 -0.12998468 -0.05407328 0.12164936 0.012743518 0.10774922
-0.17024587 0.04198542 -0.16459544 -0.059856966 0.16655105 0.008392374 -0.15283197 -0.20107628
-0.06158081 -0.08002674 -0.1894581 0.111579165 0.004012584 -0.03137504 0.15790923 -0.19343615
0.065280065 0.15119596 0.043787632 0.109449536 -0.07271636 -0.1918601 0.19064513 -0.20234092
-0.0834011 0.18493521 -0.0978895 -0.040474005 -0.10474993 0.041719623 -0.073105186 0.07652646
0.19910446 -0.1534761 0.13341166 -0.051344723 -0.20342465 0.08881462 -0.136553 0.12016664
-0.035814703 -0.12320751 -0.17794836 0.04394578 -0.1966769 0.11211376 0.07812233 -0.17326434
0.106742166 -0.16105181 0.02070552 -0.05882891 0.13641013 -0.17256661 -0.064052135 -0.0725877
-0.017414525 0.020715406 -0.12762918 0.02765424 0.0092674075 -0.103722684 0.04840771 0.14978889
0.104791276 0.065846644 -0.08987323 -0.14782189 0.1220552 0.031450585 0.015873145 0.10405515
-0.094252534 -0.20253058 -0.14008656 -0.19118226 0.12709288 0.12438255 -0.09345969 -0.045533042
00000000: bc8a 373e 7249 1e3d 534c 23bd 4420 203e
00000010: 72f8 153c f159 7abb 63d3 003c 7991 01be
00000020: 043d 75bd 1d62 3cbe 2ae6 9cbc 4dcb 49be
00000030: 9151 fe3c 2444 e6b9 e4c8 933d d076 02be
00000040: 295a b3ba dd56 69bd ec92 f9bd 9412 233e
00000050: 8b46 4ebe f7fd 133e 0f49 4ebd aade e9bd
00000060: b400 4bbe ac62 46be 5d72 90bd 5ad7 063e
00000070: da65 253d 1ebe 18be 5672 303e 107f 2b3e
00000080: 45b1 ad3d c294 4c3e 4006 0b3e ef8b ee3c
00000090: 8953 103e fb6a eebd 370c d7bc dd5e dabd
000000a0: 0d50 13bd e268 25be 620c 0e3e abb2 a5bd
000000b0: ded5 803d c4c1 3f3e 8a69 8d3d 8bfc 2f3c
000000c0: 539c 4f3e 54f3 4ebe b9a4 413e 329e 34be
000000d0: b426 4f3e 5bf6 833c cd2b 00be 9bc6 8ebd
000000e0: 998e d6bd 59a0 fa3d 109c 333e 57da fc3d
000000f0: 18c6 183e 6e81 493e 7256 38be ea68 af3d
00000100: 3ca6 893c a840 fc3d 7808 6c3d 6b68 c03b
00000110: 7202 0b3e 3866 a9bd 91c7 1ebe 70d8 15be
00000120: f3fb 153e bd08 923b 6e04 2abe dba1 903d
00000130: 543f dbbb f302 f8bd 4009 373e a2be f23d
00000140: 0041 313e e60d 07bd d616 01be b80c 31be
00000150: f773 c33c 9569 12be e620 fa3d 5db3 3dbe
00000160: a5ae 14be 007b f33c 90f0 4c3d 299e dcbc
00000170: ab05 30bd b0a5 d4bd f716 72bd 7918 d93c
00000180: ca9d 3bbe fa19 11bd 1119 05bd 0bdc 903b
00000190: 4a5e 1b3e 1a3a 2fbe 5c52 903d 5bf4 9a3d
000001a0: a777 683d 4c4e 6fbd 9b20 f23d 6a15 14be
000001b0: 185c a8bd b55c b7bb d525 f5bc 59b3 4ebe
000001c0: b0cd df3d e02c f73d e1ae 39be 1834 b239
000001d0: b104 30be 641c 18bd af2e c93c a5c8 353e
000001e0: b3cb 123e 0c49 d73d 7720 dc3c 93c3 40be
000001f0: 5cec 86bd 4f6b 3a3e 5899 893c 78f8 3cbd
00000200: 89d8 90bd d097 c93d 33a3 033e 804c 92bc
00000210: b85e 753d d507 1a3e 35f0 0b3e 87ca d83d
00000220: cdb3 0e3e eafc 973d 745a 643d 9ba4 4dbe
00000230: a050 24bd 6982 79bd 1261 3b3d 5837 6fbd
00000240: b1e3 3ebe 7de9 2e3e 8485 b5bd f9a8 46be
00000250: ccbb adbd 0be3 2e3d b24b 8ebd f7aa 50be
00000260: b23e 8b3d 7cdc a03d cf8d 423e d193 4ebe
00000270: 3122 1fbd 5d6a 9fbd d8d6 90bd 681b 8c3b
00000280: 96d1 423e a08c aebc 7313 333e 18e8 e73c
00000290: 9fa8 d9bd 4deb a0bc 3643 d73d bc3d f73d
000002a0: aae9 8abd 7583 ccbc c1c2 2ebe b41a 05be
000002b0: f27b 5dbd 4d23 f93d 30ca 503c a0ab dc3d
000002c0: ef54 2ebe e7f8 2b3d b58b 28be 942c 75bd
000002d0: 5c8c 2a3e 2b80 093c fc7f 1cbe f1e6 4dbe
000002e0: 293c 7cbd 0fe5 a3bd 4e01 42be 9e83 e43d
000002f0: ff7b 833b 1d83 00bd f5b2 213e 2014 46be
00000300: 8eb1 853d 1dd3 1a3e a95a 333d 1427 e03d
00000310: 51ec 94bd f976 44be 7a38 433e 7532 4fbe
00000320: 32ce aabd a85f 3d3e 4a7a c8bd 12c8 25bd
00000330: 2287 d6bd 32e2 2a3d 2cb8 95bd e8b9 9c3d
00000340: 0ae2 4b3e d728 1dbe 119d 083e d84e 52bd
00000350: 8d4e 50be 71e4 b53d 8dd4 0bbe ed19 f63d
00000360: 70b2 12bd 3854 fcbd 1838 36be 7d00 343d
00000370: ab65 49be e69b e53d 9afe 9f3d 356c 31be
00000380: a39b da3d c4ea 24be 9f9e a93c 95f6 70bd
00000390: 19af 0b3e 4db5 30be c42d 83bd dca8 94bd
000003a0: e8a8 8ebc 5bb3 a93c 39b1 02be 258b e23c
000003b0: 53d6 173c 8f6c d4bd 2a47 463d 4262 193e
000003c0: cf9c d63d 9bda 863d 750f b8bd 9f5e 17be
000003d0: 14f8 f93d 54d2 003d 6608 823c de1a d53d
000003e0: 7907 c1bd 2d64 4fbe da72 0fbe 48c5 43be
000003f0: a324 023e 47bc fe3d cb67 bfbd db80 3abd

bn2.running_var f4 [400]
3.0745478 3.7102733 43.983265 6.1634097 2.227251 1.2525631 15.796955 5.0101895
1.4631821 7.295687 1.6708136 4.6604056 1.2477834 2.8136346 8.016012 7.9846525
6.841616 4.516665 1.5464519 3.5392673 1.1872503 2.2985637 8.116012 6.4692144
6.3517637 2.5574267 8.650159 0.82140875 3.3012276 0.8175585 5.507146 3.793828
1.9158204 0.99927676 36.85072 6.820658 13.92517 8.017647 6.520824 6.590525
3.661004 1.4427888 2.804408 7.8638144 10.163643 4.175161 3.1684248 1.6711496
2.2952657 13.1940365 0.5540319 27.403831 1.3855145 6.6464167 1.1328545 3.3545291
2.9480083 1.0159518 5.2193975 4.583589 0.6163889 2.3345757 6.609764 1.8936596
1.4190298 3.3210192 2.2555232 4.088554 4.315562 2.7771766 14.924647 5.589892
1.8556792 2.3006773 5.9409766 1.9650817 1.2600617 5.6168146 2.6622534 2.0249722
3.6193573 5.981967 4.1470904 13.150209 0.624575 1.6864257 9.440564 6.904544
2.4058723 2.4848502 2.79334 1.3485668 35.78126 25.885939 3.857471 2.4805717
6.210982 2.9235978 5.95568 1.2260013 7.430846 3.166056 8.093777 3.1825237
1.7442242 1.4559987 5.6025696 5.64413 0.9447202 7.047793 0.947375 1.1911603
3.977119 5.7944427 0.70741695 1.3806349 0.59544396 6.6240835 5.9882874 0.503642
3.2376902 5.8433905 1.1338061 3.07436 1.9700662 1.1510155 0.9770824 3.8369887
13.217326 2.9015954 1.4253154 1.6446736 5.0529523 3.0149114 2.8488283 0.63528645
0.888545 7.306812 9.674002 0.87283576 1.8289825 2.685019 3.4817686 2.861756
3.3441947 1.5201286 2.5781898 3.4094763 1.3400825 2.47913 3.421813 3.5097134
4.603307 1.4653786 2.3200085 1.8152703 1.7240236 3.9251957 1.2993071 2.8880615
1.5503067 1.2244782 0.80267906 3.0165234 4.533535 1.5267786 1.5359602 2.0020576
1.35917 3.400481 2.2633677 11.75375 5.387688 2.5035067 1.3477646 2.5860472
2.2519057 13.56278 10.8758545 2.074676 1.275436 2.5180204 1.9366565 3.4382546
2.1356287 2.7985206 2.2728443 6.9711037 1.6659343 7.0178337 5.396192 7.2132545
2.6206298 5.5022926 6.14415 2.2999504 12.731714 9.658628 3.0442262 8.610333
3.9691744 1.3479539 6.170835 7.2487845 3.0208995 1.7533544 12.8482065 9.050675
2.873031 11.4688015 4.9168444 10.692598 2.168809 2.6446753 3.9194818 1.6576177
6.926744 1.617218 3.9457405 1.900293 1.732079 3.3280344 1.6980153 4.127394
3.0013177 2.3744617 2.6935427 1.9422665 1.8904325 2.1074808 3.0702434 2.1694512
14.005533 1.168384 1.2738905 4.9335127 4.914045 4.5616274 6.8361382 16.11901
9.711224 0.760509 1.4414206 3.8406284 1.956024 6.172493 2.5085652 3.9393744
9.884443 3.0084548 2.1341407 4.329977 2.6262484 1.657597 2.201471 4.5824027
00000000: 64c5 4440 1e75 6d40 ddee 2f42 a73a c540
00000010: 488b 0e40 fd53 a03f 54c0 7c41 7953 a040
00000020: 8d49 bb3f 4576 e940 38dd d53f 0b22 9540
00000030: 5eb7 9f3f 9712 3440 9641 0041 4682 ff40
00000040: 85ee da40 8588 9040 23f2 c53f 5b83 6240
00000050: d1f7 973f ab1b 1340 2fdb 0141 ce03 cf40
00000060: a641 cb40 e1ac 2340 0d67 0a41 d847 523f
00000070: 5047 5340 844b 513f 8a3a b040 14ce 7240
00000080: 9a39 f53f 9ad0 7f3f 2367 1342 d542 da40
00000090: 7fcd 5e41 4848 0041 97aa d040 95e5 d240
000000a0: e44d 6a40 4ead b83f 6c7b 3340 5ea4 fb40
000000b0: 489e 2241 eb9a 8540 79c7 4a40 3be8 d53f
000000c0: a2e5 1240 c61a 5341 09d5 0d3f 0c3b db41
000000d0: 8a58 b13f 72af d440 6001 913f 9bb0 5640
000000e0: 2bac 3c40 b50a 823f 4e05 a740 c3ac 9240
000000f0: aacb 1d3f b069 1540 3083 d340 7063 f23f
00000100: c5a2 b53f 948b 5440 7e5a 1040 6fd5 8240
00000110: 1519 8a40 43bd 3140 5bcb 6e41 65e0 b240
00000120: e586 ed3f 4c3e 1340 7b1c be40 cc87 fb3f
00000130: b449 a13f f2bc b340 5c62 2a40 2599 0140
00000140: 8da3 6740 466c bf40 f7b4 8440 4267 5241
00000150: 26e4 1f3f ccdc d73f 8d0c 1741 06f2 dc40
00000160: d0f9 1940 c907 1f40 15c6 3240 d69d ac3f
00000170: 0320 0f42 6716 cf41 cee0 7640 b0c1 1e40
00000180: 5dc0 c640 3a1c 3b40 ee94 be40 9ced 9c3f
00000190: 7ec9 ed40 a9a0 4a40 1c80 0141 78ae 4b40
000001a0: bd42 df3f 2a5e ba3f 4048 b340 b79c b440
000001b0: 2fd9 713f 8587 e140 2b87 723f f177 983f
000001c0: 1e89 7e40 136c b940 4719 353f a5b8 b03f
000001d0: 046f 183f 7ef8 d340 0da0 bf40 afee 003f
000001e0: 5136 4f40 0efd ba40 8f20 913f 50c2 4440
000001f0: 212b fc3f 7a54 933f 1222 7a3f 3991 7540
00000200: 2b7a 5341 bdb3 3940 bc70 b63f aa84 d23f
00000210: c9b1 a140 4ff4 4040 3453 3640 22a2 223f
00000220: af77 633f 67d1 e940 b6c8 1a41 2a72 5f3f
00000230: 191c ea3f 5ad7 2b40 4cd5 5e40 0327 3740
00000240: 4907 5640 9393 c23f 1001 2540 dc34 5a40
00000250: d387 ab3f 11aa 1e40 fcfe 5a40 259f 6040
00000260: 4a4e 9340 8791 bb3f 057b 1440 c75a e83f
00000270: ceac dc3f 6836 7b40 b24f a63f 00d6 3840
00000280: 7370 c63f b4bb 9c3f 607c 4d3f b80e 4140
00000290: b812 9140 7b6d c33f 589a c43f b621 0040
000002a0: 48f9 ad3f 7ba1 5940 04db 1040 5c0f 3c41
000002b0: f167 ac40 7439 2040 8d83 ac3f cc81 2540
000002c0: 391f 1040 2601 5941 8003 2e41 7ec7 0440
000002d0: 7d41 a33f 3f27 2140 5ce4 f73f 5d0c 5c40
000002e0: 24ae 0840 f61a 3340 4876 1140 4813 df40
000002f0: 563d d53f 1892 e040 9bad ac40 fbd2 e640
00000300: 66b8 2740 c812 b040 e09c c440 6332 1340
00000310: 1ab5 4b41 be89 1a41 9ad4 4240 edc3 0941
00000320: f406 7e40 c189 ac3f 7b77 c540 0bf6 e740
00000330: 6b56 4140 eb6d e03f 4192 4d41 91cf 1041
00000340: bddf 3740 3680 3741 ca56 9d40 e214 2b41
00000350: c4cd 0a40 5c42 2940 cad8 7a40 d12c d43f
00000360: e3a7 dd40 0001 cf3f 0387 7c40 cd3c f33f
00000370: c4b4 dd3f 84fe 5440 9158 d93f 9d13 8440
00000380: 9715 4040 2ef7 1740 0163 2c40 309c f83f
00000390: b1f9 f13f f7e0 0640 de7e 4440 4ad8 0a40
000003a0: aa16 6041 9b8d 953f d80e a33f 56df 9d40
000003b0: db3f 9d40 daf8 9140 a5c1 da40 bcf3 8041
000003c0: 2c61 1b41 b8b0 423f 7880 b83f dbcc 7540
000003d0: ff5e fa3f 1085 c540 558c 2040 b61e 7c40
000003e0: ae26 1e41 868a 4040 c395 0840 2c8f 8a40
000003f0: 7414 2840 232c d43f e7e4 0c40 0ba3 9240

bn3.weight f4 [300]
0.8748976 0.6762132 0.53374845 0.4086742 0.45174414 0.57962793 0.91270405 1.0089667
0.42106485 0.4190135 0.82725275 0.49122345 1.246985 0.72503805 0.45378926 0.91102016
0.7113705 1.0817847 0.77848023 0.57339567 0.7108825 0.5140165 0.6160277 0.5572563
0.7298993 1.1898819 0.5252494 0.7801598 1.3206089 1.0923653 0.7810039 0.67588335
1.1630248 1.1109022 0.95716906 0.8729318 0.6795097 1.1296604 0.9318916 0.6966112
0.50907075 0.6394366 0.81448203 0.61791474 0.8595678 0.9524284 0.9951322 1.1308192
0.6732535 0.6288397 1.2551734 0.4321676 0.38973677 1.0358812 0.3505376 0.87474835
0.98228 1.0221868 0.8993639 0.5612757 0.5500576 0.6562366 0.5126961 1.230664
0.48413864 0.5098619 0.78936154 0.54598975 1.0901624 1.1174595 0.64058495 0.4311407
0.6248101 0.5236351 0.8005505 0.5779164 0.65222865 0.45880467 0.65902233 0.66830087
0.60046506 0.6055294 0.9904622 1.021345 0.89943296 0.88635445 0.89713335 0.4889976
1.228002 1.1305767 0.80407864 1.1535013 1.0673455 1.5339651 0.8611936 0.8579067
0.7874329 0.93257266 0.61898804 0.37813687 0.96194875 0.78635144 0.62709606 0.71470124
1.1698048 1.1579407 0.9193119 0.5201471 0.526439 0.55813503 0.461307 0.8956467
0.6545177 0.7587481 0.5268918 0.47609293 1.2727153 0.512163 0.611742 0.5974283
0.8055749 0.56188023 0.69791466 0.6019248 0.6049733 0.5144124 1.4180001 0.5868758
0.9335208 0.9414556 1.0808372 0.96237713 1.0506872 0.5896571 1.1011792 0.9187346
1.1834714 0.7952148 1.1512829 0.6923193 0.8033993 0.8429073 0.68993205 0.48824927
0.97708964 1.096409 0.592741 1.1807035 0.9316661 0.4928079 1.1515658 0.63418335
1.2319431 1.0561942 1.2213333 0.49903572 0.76791185 0.94358563 0.8016155 0.6405221
0.74722767 0.565273 1.0799508 0.5906356 0.98321784 0.6942489 0.58952713 0.48750412
0.56223 0.7562791 1.2483641 0.41029802 1.014999 0.7568459 1.0871141 0.5259002
0.8934324 0.49467066 0.9019307 1.1519891 0.5767376 0.93595964 0.65652484 0.73683256
0.6960025 0.99489725 1.0993389 0.87324387 0.63668257 0.5115267 0.49309587 0.5984423
0.5813305 1.0807786 0.6036546 0.82604545 0.7952332 1.0784255 0.6540578 0.9689404
0.7060775 1.0023344 1.2057375 1.2575402 0.5043884 0.66155267 1.4089051 0.6594861
0.94161046 0.45930967 0.8055865 0.7574998 1.0866636 0.67997867 0.46469635 0.6315644
1.150753 1.2929549 0.6703149 0.86531335 0.7873108 1.1002227 0.8261788 0.8891121
0.60403496 1.1238244 0.5301454 0.45312333 0.58427536 0.6976355 0.98172456 0.44230613
1.072346 0.75908405 0.5849485 0.6053462 1.2487675 1.0385193 0.5793426 0.4836645
0.63706917 0.52818316 1.073345 0.5267912 0.5921821 0.6375983 0.97368896 0.6413499
1.4346461 1.2225462 0.61022806 0.65890884 0.61837167 1.1761627 0.87796843 0.5049666
00000000: 4af9 5f3f 4f1c 2d3f bda3 083f bf3d d13e
00000010: 024b e73e 7f62 143f f9a6 693f d225 813f
00000020: d095 d73e f088 d63e d6c6 533f a481 fb3e
00000030: 349d 9f3f 189c 393f 1157 e83e 9e38 693f
00000040: 611c 363f ec77 8a3f 7b4a 473f 0fca 123f
00000050: 65fc 353f 9696 033f feb3 1d3f 59a8 0e3f
00000060: aeda 3a3f 0d4e 983f bf76 063f 8db8 473f
00000070: b609 a93f a0d2 8b3f dfef 473f b106 2d3f
00000080: ffdd 943f 0b32 8e3f 0809 753f 7578 5f3f
00000090: 59f4 2d3f b698 903f 7390 6e3f 1d55 323f
000000a0: 7652 023f 1eb2 233f e581 503f a92f 1e3f
000000b0: a30c 5c3f 59d2 733f fcc0 7e3f afbe 903f
000000c0: 575a 2c3f a3fb 203f 86a9 a03f 1245 dd3e
000000d0: 948b c73e c197 843f aa79 b33e 82ef 5f3f
000000e0: b476 7b3f 04d7 823f b63c 663f c4af 0f3f
000000f0: 93d0 0c3f 1fff 273f 0d40 033f 6686 9d3f
00000100: 05e1 f73e 4f86 023f 9913 4a3f fcc5 0b3f
00000110: 718a 8b3f ea08 8f3f 60fd 233f 79be dc3e
00000120: 8ef3 1f3f f30c 063f e1f0 4c3f 54f2 133f
00000130: 75f8 263f 72e8 ea3e b0b5 283f c415 2b3f
00000140: 14b8 193f fa03 1b3f ee8e 7d3f 6fbb 823f
00000150: 3d41 663f 20e8 623f 88aa 653f e55d fa3e
00000160: 2b2f 9d3f bdb6 903f 19d8 4d3f eea5 933f
00000170: c79e 883f f858 c43f 2f77 5c3f c69f 5b3f
00000180: 3495 493f 15bd 6e3f 0076 1e3f 289b c13e
00000190: 4642 763f 544e 493f 5e89 203f a9f6 363f
000001a0: 2abc 953f 6737 943f 0658 6b3f 5c28 053f
000001b0: b5c4 063f f0e1 0e3f 6e30 ec3e 1a49 653f
000001c0: 798e 273f 513d 423f 62e2 063f 74c2 f33e
000001d0: 56e8 a23f 1d1d 033f 209b 1c3f 10f1 183f
000001e0: 283a 4e3f 62d7 0f3f 89aa 323f be17 1a3f
000001f0: 88df 1a3f 88b0 033f 0781 b53f 7e3d 163f
00000200: 38fb 6e3f 3c03 713f e058 8a3f 595e 763f
00000210: eb7c 863f c5f3 163f 71f3 8c3f 3132 6b3f
00000220: fe7b 973f 3293 4b3f 3d5d 933f d63b 313f
00000230: 94ab 4d3f c6c8 573f 639f 303f cffb f93e
00000240: 8c22 7a3f 2157 8c3f e0bd 173f 4b21 973f
00000250: ab81 6e3f 5151 fc3e 8266 933f d759 223f
00000260: 50b0 9d3f 5f31 873f a654 9c3f 9c81 ff3e
00000270: df95 443f d48e 713f ac36 4d3f 42f9 233f
00000280: 504a 3f3f bbb5 103f d43b 8a3f e533 173f
00000290: 2ab4 7b3f 4cba 313f 40eb 163f 249a f93e
000002a0: 4eee 0f3f 829b 413f 65ca 9f3f 9512 d23e
000002b0: 7deb 813f a7c0 413f 8e26 8b3f 65a1 063f
000002c0: fcb7 643f 7945 fd3e eee4 663f 6174 933f
000002d0: 13a5 133f 0d9b 6f3f 0312 283f 0fa1 3c3f
000002e0: 382d 323f 96b1 7e3f 23b7 8c3f e98c 5f3f
000002f0: a1fd 223f 6af3 023f 1077 fc3e 8433 193f
00000300: 13d2 143f f456 8a3f 1c89 1a3f b777 533f
00000310: 6794 4b3f d909 8a3f 5570 273f 7a0c 783f
00000320: 7fc1 343f 7e4c 803f 9b55 9a3f 14f7 a03f
00000330: 991f 013f 845b 293f 0157 b43f 15d4 283f
00000340: 620d 713f a32a eb3e eb3a 4e3f 82eb 413f
00000350: cb17 8b3f 1513 2e3f aeec ed3e 34ae 213f
00000360: e04b 933f 8c7f a53f c299 2b3f 2d85 5d3f
00000370: 338d 493f 19d4 8c3f 7480 533f da9c 633f
00000380: 09a2 1a3f 7ad9 8f3f 9cb7 073f c8ff e73e
00000390: 1293 153f 3d98 323f 4d52 7b3f f375 e23e
000003a0: a242 893f 5553 423f 2fbf 153f f8f7 1a3f
000003b0: 9dd7 9f3f 33ee 843f cc4f 143f e0a2 f73e
000003c0: f716 233f 0337 073f 5e63 893f cadb 063f
000003d0: 3f99 173f a439 233f ae43 793f 822f 243f
000003e0: 7ca2 b73f 657c 9c3f e837 1c3f 40ae 283f
000003f0: 9b4d 1e3f 808c 963f 8ac2 603f 7e45 013f

bn3.bias f4 [300]
-0.98409534 -0.60331446 -0.84326726 -0.6154775 -0.83198535 -0.72536296 -0.39645052 -1.4964284
-0.9744353 -0.69877106 -1.3573668 -0.59910154 -0.14588994 -0.8667783 -0.91650176 -1.3330171
-0.88104016 -0.28983688 -1.2313093 -0.545049 -0.6868418 -0.95265007 -0.59937143 -0.6786307
-0.7852587 -0.5524959 -0.88675123 -0.6442436 -0.12952858 -0.29495046 -0.83766276 -1.0275594
-0.39841557 -1.1147604 -0.61918247 -0.7168293 -0.9704718 -0.5377265 -0.7898806 -0.9594737
-0.72086173 -0.7279421 -0.6044921 -1.013614 -1.2066343 -0.806053 -1.5498165 -0.37690774
-0.8336903 -0.8183074 -0.21730286 -0.97266716 -0.704053 -0.3256328 -0.56180996 -0.8590054
-0.73632956 -0.7544907 -0.8419961 -1.2055979 -0.7639143 -0.9946671 -0.5957902 -0.3889371
-0.76187575 -0.83085054 -1.2993312 -0.9685921 -0.17303126 -0.6114031 -0.6848605 -0.57946974
-0.67016906 -0.89609915 -0.62393177 -1.162675 -0.9830054 -0.65669876 -0.80871874 -0.8310133
-0.89657795 -0.6733076 -0.3082622 -0.6926739 -0.30797863 -0.5526543 -1.3848299 -0.7489154
-1.8662978 -0.1533786 -0.95342594 -1.2378081 -1.6132991 -0.23403007 -0.8685029 -0.80993855
-1.2682893 -0.9445843 -0.79900783 -0.67512727 -1.1372049 -0.7752451 -1.2349391 -1.0127715
-0.17279892 -1.7727177 -0.8145199 -0.6713336 -0.59582084 -0.88837373 -0.5774648 -0.82937676
-0.7798813 -1.0507505 -0.5905627 -0.72931826 -0.31914532 -0.54864585 -0.5549979 -0.7362259
-1.2242587 -0.51865387 -0.9352786 -0.80860627 -0.8413836 -0.74235094 -0.11966829 -0.94904417
-0.23577338 -0.7304352 -0.36342105 -1.1140534 -1.6148689 -0.87556475 -0.5246153 -1.4464977
-0.4794091 -0.9528859 -0.14291391 -0.7589411 -0.8659957 -0.7496296 -0.88680935 -0.59555733
-0.43167013 -1.5635631 -0.6256824 -0.14977318 -0.6233509 -0.73358095 -0.14754349 -0.9409978
-0.22810121 -0.41526085 -0.06704542 -1.0468619 -0.889707 -0.80185676 -0.8669881 -1.0401411
-0.79034346 -0.8442038 -0.23652072 -0.66865325 -0.56605583 -0.6987609 -1.1029335 -0.7181315
-0.6869507 -0.8185032 -0.10883304 -0.6463465 -0.6237487 -1.1607264 -0.57501733 -0.8820561
-0.585987 -0.7548852 -0.3357683 -0.21066256 -0.8093005 -0.59771454 -1.0908158 -1.1162353
-0.8573842 -1.5155264 -0.24827439 -0.7749266 -0.6321156 -0.6348268 -0.72710776 -0.8888496
-0.6889546 -0.690459 -0.6060508 -0.7139156 -0.8554393 -1.1507807 -0.6265394 -0.8392041
-0.3936679 -1.5733985 -0.2270416 -0.44943407 -0.6534855 -0.86975163 -0.59965026 -0.46282956
-0.80997235 -0.6789908 -0.43430334 -1.0300727 -0.2812699 -0.9780127 -0.84541464 -1.0563732
-0.39987692 -0.100269444 -1.0205384 -0.9749045 -0.5807677 -0.6852355 -0.48272172 -0.52623093
-0.9015852 -1.253775 -0.6556552 -0.6846251 -0.7123882 -0.80910677 -0.51437986 -0.6566221
-0.92429906 -0.80766547 -1.1150135 -0.73813707 -0.5665098 -0.4828125 -0.61892927 -0.6556548
-0.98444617 -0.5628013 -0.29412666 -0.7317016 -0.5560277 -0.59619856 -0.41196105 -0.9642368
-0.18361954 -0.8220259 -0.69354945 -0.91585046 -0.7543887 -1.746865 -0.41838813 -0.702134
00000000: aced 7bbf d172 1abf 5de0 57bf ef8f 1dbf
00000010: fefc 54bf 63b1 39bf 90fb cabe f78a bfbf
00000020: 9874 79bf a9e2 32bf 32be adbf b85e 19bf
00000030: 2c64 15be 2fe5 5dbf dc9f 6abf 4ea0 aabf
00000040: d98b 61bf 8065 94be 8b9b 9dbf 5588 0bbf
00000050: ddd4 2fbf e0e0 73bf 6870 19bf beba 2dbf
00000060: b706 49bf 5f70 0dbf 2102 63bf 26ed 24bf
00000070: 24a3 04be bf03 97be 1171 56bf 1187 83bf
00000080: 20fd cbbe 78b0 8ebf be82 1ebf 2082 37bf
00000090: d770 78bf 72a8 09bf 9d35 4abf 12a0 75bf
000000a0: 658a 38bf 6a5a 3abf ffbf 1abf 1bbe 81bf
000000b0: fe72 9abf 7d59 4ebf 6360 c6bf 0dfa c0be
000000c0: ba6c 55bf 987c 51bf a484 5ebe b700 79bf
000000d0: d13c 34bf 58b9 a6be c7d2 0fbf c7e7 5bbf
000000e0: 1880 3cbf 4d26 41bf 0e8d 57bf 0851 9abf
000000f0: e38f 43bf 81a2 7ebf b585 18bf c322 c7be
00000100: 4a0a 43bf 9fb2 54bf 7c50 a6bf a7f5 77bf
00000110: 1b2f 31be ea84 1cbf 0553 2fbf 2158 14bf
00000120: 3390 2bbf c166 65bf feb9 1fbf 89d2 94bf
00000130: 3ea6 7bbf 691d 28bf 3108 4fbf 4abd 54bf
00000140: 2286 65bf e35d 2cbf 8bd4 9dbe 1453 31bf
00000150: 60af 9dbe c17a 0dbf 1b42 b1bf ebb8 3fbf
00000160: d9e2 eebf 480f 1dbe b913 74bf 7f70 9ebf
00000170: 9680 cebf 94a5 6fbe 3556 5ebf 2258 4fbf
00000180: 4e57 a2bf 47d0 71bf c78b 4cbf 24d5 2cbf
00000190: ee8f 91bf 7676 46bf 7c12 9ebf 7fa2 81bf
000001a0: 33f2 30be 6ae8 e2bf 6084 50bf 85dc 2bbf
000001b0: b787 18bf 766c 63bf bcd4 13bf 0952 54bf
000001c0: 4da6 47bf fe7e 86bf 1e2f 17bf 9ab4 3abf
000001d0: 0467 a3be 0e74 0cbf 5814 0ebf 4d79 3cbf
000001e0: 82b4 9cbf 80c6 04bf 6b6e 6fbf d200 4fbf
000001f0: ea64 57bf b60a 3ebf a614 f5bd 8ff4 72bf
00000200: 946e 71be cdfd 3abf 5312 babe 4d99 8ebf
00000210: 06b4 cebf 0325 60bf 304d 06bf d626 b9bf
00000220: 1c75 f5be 55f0 73bf 0658 12be f749 42bf
00000230: e5b1 5dbf bae7 3fbf f005 63bf 7276 18bf
00000240: de03 ddbe d622 c8bf b92c 20bf 245e 19be
00000250: ed93 1fbf f6cb 3bbf a415 17be 3be5 70bf
00000260: 5d93 69be 129d d4be 1c4f 89bd 92ff 85bf
00000270: d7c3 63bf 7c46 4dbf eff2 5dbf 5823 85bf
00000280: f353 4abf be1d 58bf 7d32 72be dc2c 2bbf
00000290: 09e9 10bf ffe1 32bf ed2c 8dbf 77d7 37bf
000002a0: 00dc 2fbf 6d89 51bf dbe3 debd f776 25bf
000002b0: ffad 1fbf af92 94bf 5634 13bf 6ece 61bf
000002c0: 3e03 16bf 2840 41bf d3e9 abbe edb7 57be
000002d0: 512e 4fbf d203 19bf da9f 8bbf cce0 8ebf
000002e0: 887d 5bbf c5fc c1bf a43b 7ebe 9761 46bf
000002f0: 54d2 21bf 0284 22bf bc23 3abf a68b 63bf
00000300: 545f 30bf ecc1 30bf 2526 1bbf 2cc3 36bf
00000310: 12fe 5abf c84c 93bf e364 20bf 14d6 56bf
00000320: d78e c9be 1f65 c9bf 987d 68be 391c e6be
00000330: d34a 27bf 0ba8 5ebf ae82 19bf fff7 ecbe
00000340: 595a 4fbf 57d2 2dbf 025d debe 6cd9 83bf
00000350: 9c02 90be 0a5f 7abf 186d 58bf 3d37 87bf
00000360: abbc ccbe 115a cdbd 01a1 82bf 5793 79bf
00000370: 31ad 14bf 986b 2fbf 4d27 f7be 12b7 06bf
00000380: 4ace 66bf b37b a0bf 05d9 27bf 9743 2fbf
00000390: 135f 36bf 9f21 4fbf 66ae 03bf 6318 28bf
000003a0: dd9e 6cbf 2ac3 4ebf c3b8 8ebf 8df6 3cbf
000003b0: c906 11bf 3333 f7be 2672 1ebf fed8 27bf
000003c0: aa04 7cbf bf13 10bf c597 96be cc50 3bbf
000003d0: d557 0ebf 78a0 18bf 8fec d2be 39d8 76bf
000003e0: c306 3cbe 4a70 52bf 758c 31bf 2d75 6abf
000003f0: 9e1f 41bf 4699 dfbf f836 d6be 0ebf 33bf

bn3.running_mean f4 [300]
-7.6523767 -6.772688 -11.005796 -6.943482 -6.264714 -5.4870954 -3.8335378 -10.316971
2.8100576 -2.4844668 3.5452712 -2.1463187 -1.0540307 -6.95931 -0.849333 -1.9570733
1.6275995 -2.8404107 -12.168414 -5.8057604 -4.95156 -4.7106185 -1.9164233 -5.6973147
-5.3953958 -2.3430543 -11.324263 -4.602768 1.1874986 -13.322062 -8.859691 -2.301986
-6.6846004 -12.58465 -0.44749567 -4.569578 -4.5335507 -1.5024829 -14.793666 -8.150143
-2.5642357 -5.734058 -5.058721 -11.822338 -13.878049 -3.2894523 -11.344639 -6.0361476
-8.374921 -3.4392018 -1.2934597 0.09268291 -1.7990788 -3.7538464 -2.7328053 -3.9272106
-4.391018 2.7820926 -16.703075 3.8183656 -12.849657 -13.206852 -2.2863634 0.52512246
0.5871117 1.1591187 -11.126196 -1.16614 -0.08087696 -3.5413375 0.8407177 -1.2965884
-8.883768 -6.0604963 -3.3117921 -2.392052 -13.144527 -1.5035073 -4.314938 -3.4948246
-12.843398 -1.4250607 0.17327902 -7.874051 -5.9921484 -5.412305 -9.8864565 -2.613676
-11.31062 -4.9392796 -4.43218 -12.645301 -10.488724 -9.28951 0.60057825 -4.636866
-11.714989 -4.125727 -3.3052857 -3.0621502 3.6176987 -4.3396683 1.4527757 -3.0617814
-1.359599 -10.816115 -6.4267163 -1.6320724 -1.5221882 -3.1787305 -6.5942225 -2.11213
-8.650864 2.3120165 -7.0593214 -2.9077494 -12.359137 -4.5695653 -4.4699655 -0.8630094
-12.008846 -3.1538956 -2.556868 -12.709962 -3.6691747 -5.388842 -4.00475 -4.9720216
-1.2247252 -0.7122068 0.603775 0.036759242 -11.029364 -3.3811836 -5.6325064 -12.026901
-11.241085 -12.869721 -5.7395663 -9.327798 -14.364185 -3.0336797 -7.166729 -6.588587
-4.6206617 -8.353597 -2.7784903 -3.998932 -2.658986 -6.4919276 -8.843174 -5.5122256
-4.834478 -16.149128 -3.2259169 -2.1317527 4.2868404 -11.721587 -1.8840231 -12.388581
-3.146339 -3.7278867 -1.5693344 -2.6601665 -3.3936534 -8.965374 -0.6133013 -10.636429
-9.26261 -7.23141 -4.766509 -1.8604811 -1.4793936 4.399896 3.242747 -6.6170473
-4.7506166 -3.0264275 -6.115289 -5.325947 -6.4887633 -4.959293 -4.1833067 -11.866352
-14.785861 -10.765985 -6.1735854 -3.60026 -4.5647755 -2.4396715 -2.5731752 4.128203
-2.667726 -2.1000292 -3.247865 -6.9410653 -2.3287392 -13.96017 -6.750017 -1.8336842
-2.4782 -0.87930954 0.32326287 -6.739845 -4.5250254 -5.609287 0.05188234 -1.1774923
-3.311945 -1.2201219 -3.8903954 -0.37106252 1.154821 -10.172914 -4.2476115 3.6991708
-4.363255 -0.8986967 -12.930125 -1.8171244 -4.772285 -1.7228482 -4.707016 -5.300642
-4.4275236 -8.053093 -2.7189057 -6.8647738 -5.7770004 -5.796094 -5.052721 -5.7170544
-12.18886 -17.85515 -7.264187 -1.6380914 -1.1858957 -11.973764 -2.0261948 -0.27624872
-0.5053949 -7.736143 -2.034031 -12.7490425 -3.1792207 -5.08267 -1.6442187 0.9409043
-5.476816 -3.932162 -3.6600974 -4.1962633 -4.5805416 -9.995127 -2.628083 -4.610759
00000000: 45e0 f4c0 dcb9 d8c0 be17 30c1 0131 dec0
00000010: 8978 c8c0 4996 afc0 af58 75c0 5012 25c1
00000020: fcd7 3340 8101 1fc0 b9e5 6240 495d 09c0
00000030: 7aea 86bf abb2 dec0 e36d 59bf 6181 fabf
00000040: 2e55 d03f 4ac9 35c0 d3b1 42c1 cac8 b9c0
00000050: 2e73 9ec0 63bd 96c0 5c4d f5bf 6750 b6c0
00000060: 15a7 acc0 9af4 15c0 2e30 35c1 e049 93c0
00000070: f4ff 973f 2a27 55c1 4bc1 0dc1 bd53 13c0
00000080: 3fe8 d5c0 ba5a 49c1 271e e5be fc39 92c0
00000090: d912 91c0 5c51 c0bf dbb2 6cc1 fc66 02c1
000000a0: 701c 24c0 677d b7c0 0be1 a1c0 4c28 3dc1
000000b0: 7d0c 5ec1 6386 52c0 a483 35c1 1f28 c1c0
000000c0: adff 05c1 e21b 5cc0 1690 a5bf 8ad0 bd3d
000000d0: 3748 e6bf 053f 70c0 48e6 2ec0 6b57 7bc0
000000e0: 3883 8cc0 ce0d 3240 e69f 85c1 1a60 7440
000000f0: 3298 4dc1 444f 53c1 c753 12c0 6d6e 063f
00000100: f44c 163f 005e 943f e604 32c1 1344 95bf
00000110: d2a2 a5bd 46a5 62c0 4639 573f 9cf6 a5bf
00000120: ea23 0ec1 96ef c1c0 67f4 53c0 6117 19c0
00000130: fc4f 52c1 ed72 c0bf f913 8ac0 35ab 5fc0
00000140: 8f7e 4dc1 6468 b6bf 0e70 313e 3af8 fbc0
00000150: aebf bfc0 9a31 adc0 ed2e 1ec1 7846 27c0
00000160: 4df8 34c1 940e 9ec0 6bd4 8dc0 2753 4ac1
00000170: d0d1 27c1 d5a1 14c1 7fbf 193f 3561 94c0
00000180: 9870 3bc1 f505 84c0 cd89 53c0 45fa 43c0
00000190: 6088 6740 90de 8ac0 8ef4 b93f 3af4 43c0
000001a0: 5707 aebf cf0e 2dc1 a9a7 cdc0 c0e7 d0bf
000001b0: 10d7 c2bf 5270 4bc0 df03 d3c0 232d 07c0
000001c0: f069 0ac1 14f8 1340 f6e5 e1c0 9118 3ac0
000001d0: 06bf 45c1 e139 92c0 f509 8fc0 2fee 5cbf
000001e0: 3c24 40c1 6dd9 49c0 baa3 23c0 015c 4bc1
000001f0: c2d3 6ac0 6571 acc0 e926 80c0 cd1a 9fc0
00000200: ccc3 9cbf 2f53 36bf 0091 1a3f dc90 163d
00000210: 4678 30c1 5065 58c0 7e3d b4c0 306e 40c1
00000220: 7cdb 33c1 61ea 4dc1 87aa b7c0 a93e 15c1
00000230: b4d3 65c1 cf27 42c0 d855 e5c0 b4d5 d2c0
00000240: 76dc 93c0 55a8 05c1 c9d2 31c0 80ee 7fc0
00000250: d42c 2ac0 dfbd cfc0 a47d 0dc1 2764 b0c0
00000260: 0bb4 9ac0 6a31 81c1 6c75 4ec0 a36e 08c0
00000270: cc2d 8940 9f8b 3bc1 ab27 f1bf a137 46c1
00000280: 9e5d 49c0 b295 6ec0 f3df c8bf 2b40 2ac0
00000290: 9e31 59c0 2c72 0fc1 5001 1dbf d02e 2ac1
000002a0: a733 14c1 b667 e7c0 3e87 98c0 3f24 eebf
000002b0: c55c bdbf f3cb 8c40 2b89 4f40 dabe d3c0
000002c0: 0d05 98c0 fdb0 41c0 73b0 c3c0 286e aac0
000002d0: f3a3 cfc0 87b2 9ec0 a6dd 85c0 94dc 3dc1
000002e0: e392 6cc1 7941 2cc1 038e c5c0 a96a 66c0
000002f0: a412 92c0 9423 1cc0 e7ae 24c0 3d1a 8440
00000300: 06bc 2ac0 e166 06c0 05dd 4fc0 351d dec0
00000310: 100a 15c0 db5c 5fc1 2400 d8c0 2ab6 eabf
00000320: d49a 1ec0 6e1a 61bf b682 a53e cfac d7c0
00000330: 02cd 90c0 477f b3c0 9482 543d 11b8 96bf
00000340: e8f6 53c0 f42c 9cbf 3dfc 78c0 e8fb bdbe
00000350: 2dd1 933f 41c4 22c1 6fec 87c0 37bf 6c40
00000360: c99f 8bc0 fd10 66bf cbe1 4ec1 8897 e8bf
00000370: 8fb6 98c0 4a86 dcbf e09f 96c0 dc9e a9c0
00000380: 46ae 8dc0 78d9 00c1 8d02 2ec0 3aac dbc0
00000390: 30dd b8c0 9a79 b9c0 e4af a1c0 1cf2 b6c0
000003a0: 9205 43c1 59d7 8ec1 3874 e8c0 fbac d1bf
000003b0: 6ecb 97bf 8a94 3fc1 2dad 01c0 7970 8dbe
000003c0: 8f61 01bf 7c8e f7c0 902d 02c0 14fc 4bc1
000003d0: 5a78 4bc0 3ca5 a2c0 c275 d2bf 1bdf 703f
000003e0: 1442 afc0 8ba8 7bc0 093f 6ac0 ca47 86c0
000003f0: cc93 92c0 0aec 1fc1 8332 28c0 568b 93c0

bn3.running_var f4 [300]
10.238337 34.8332 39.471382 49.18054 16.404177 10.347664 51.061386 29.94289
3.5866883 3.1368504 4.433272 2.728526 169.02872 10.063786 3.926913 5.400614
22.82077 99.295265 27.928965 27.164787 11.30803 12.042347 20.310452 24.33898
20.28468 38.863667 20.654963 18.433876 129.7139 123.57235 20.089891 4.7406144
34.768665 51.86907 13.121398 35.018513 17.034422 17.17423 37.896378 10.671325
5.790702 16.899693 16.434404 22.704546 33.84119 12.869484 29.997799 31.442036
16.528538 17.698421 130.865 10.934541 1.7470609 82.11297 6.9753275 11.488698
12.324682 11.060451 45.712437 12.064932 55.637848 33.933933 7.6709547 79.508194
6.903015 19.089622 27.883415 6.7930408 125.5679 24.53697 20.856922 1.5725036
49.379814 8.04874 25.981049 4.7730575 30.386145 3.855928 38.53233 5.9616814
45.83309 10.328918 93.394615 23.492172 78.29833 36.31333 27.031315 9.876024
30.798315 116.28311 7.382352 42.229336 28.72998 58.460308 10.877009 17.004465
28.492897 11.704054 22.574894 4.1740975 12.974923 18.167456 20.20161 4.817136
144.2508 28.788273 16.711245 6.9593296 2.679403 5.7902493 46.19163 8.432284
26.197187 8.979528 68.73134 3.0487847 83.39622 25.229992 29.153297 12.533704
29.801456 9.833609 6.224786 51.359318 11.636766 14.217293 124.61862 3.3126829
111.71921 21.655067 73.419754 9.123441 30.109392 11.740238 17.911211 31.048952
41.77398 40.49137 101.73857 34.99429 43.556755 9.193649 13.856358 37.48335
63.837093 24.247826 13.674538 119.48163 14.756188 13.606815 62.176586 35.542473
35.740833 105.62195 133.62756 1.8368899 26.256542 34.02779 9.981869 29.00193
7.6642203 4.3324456 108.25404 12.162467 29.009396 19.69436 2.7914302 41.061653
29.55375 18.469496 113.86373 4.9219265 25.066774 16.828815 10.708019 7.809444
30.307941 6.477693 65.79422 103.64694 12.212166 13.217001 5.6670456 28.389387
46.660816 29.771051 96.774445 17.323456 20.468018 3.034047 4.175061 15.814419
10.251588 11.259367 9.571877 19.854837 9.544674 49.32725 20.635271 9.166823
29.049881 5.3276744 13.338445 33.06084 26.603098 7.745597 9.549464 10.304352
22.166506 14.178357 13.432528 5.131972 41.687218 31.629389 7.140295 18.08924
52.037086 166.36176 22.099247 10.01093 15.530174 17.919065 36.039207 22.879396
5.9953313 34.04139 7.2861223 12.799428 22.34969 17.949402 21.592743 28.211527
38.105698 87.32369 8.742269 23.330942 43.895775 78.215416 7.934324 2.4948983
8.4682455 51.302113 103.47726 51.33637 14.409348 18.738085 62.458576 11.31343
102.79105 14.248525 52.697083 4.9972634 10.610386 28.263824 60.164345 9.964043
00000000: 3ad0 2341 3255 0b42 b2e2 1d42 dfb8 4442
00000010: c13b 8341 0890 2541 dc3e 4c42 0a8b ef41
00000020: 4d8c 6540 28c2 4840 5ddd 8d40 2ca0 2e40
00000030: 5a07 2943 4405 2141 8b52 7b40 d4d1 ac40
00000040: f090 b641 2d97 c642 856e df41 7c51 d941
00000050: b1ed 3441 74ad 4041 ce7b a241 3bb6 c241
00000060: 0647 a241 6574 1b42 5d3d a541 9478 9341
00000070: c2b6 0143 0b25 f742 19b8 a041 1db3 9740
00000080: 1d13 0b42 ed79 4f42 3ff1 5141 f512 0c42
00000090: 7f46 8841 d364 8941 e495 1742 bfbd 2a41
000000a0: 6e4d b940 9232 8741 a979 8341 e9a2 b541
000000b0: 615d 0742 68e9 4d41 7efb ef41 4a89 fb41
000000c0: 723a 8441 5e96 8d41 71dd 0243 e1f3 2e41
000000d0: b19f df3f d739 a442 e235 df40 b5d1 3741
000000e0: e631 4541 9bf7 3041 89d9 3642 f609 4141
000000f0: 288d 5e42 59bc 0742 7678 f540 3204 9f42
00000100: 80e5 dc40 8cb7 9841 3c11 df41 9760 d940
00000110: c422 fb42 b74b c441 fada a641 cc47 c93f
00000120: ee84 4542 a4c7 0041 30d9 cf41 e3bc 9840
00000130: d316 f341 86c7 7640 1b21 1a42 18c6 be40
00000140: 1655 3742 4043 2541 0bca ba42 f8ef bb41
00000150: bf98 9c42 da40 1142 2240 d841 3204 1e41
00000160: f362 f641 f490 e842 3a3c ec40 d7ea 2842
00000170: 00d7 e541 5bd7 6942 3b08 2e41 2509 8841
00000180: 74f1 e341 ce43 3b41 6299 b441 3592 8540
00000190: 4999 4f41 f356 9141 e69c a141 fa25 9a40
000001a0: 3440 1043 624e e641 a1b0 8541 d4b2 de40
000001b0: 577b 2b40 b949 b940 3bc4 3842 a3ea 0641
000001c0: d793 d141 26ac 0f41 7276 8942 4a1f 4340
000001d0: ddca a642 06d7 c941 f439 e941 0d8a 4841
000001e0: 6269 ee41 7656 1d41 7231 c740 f16f 4d42
000001f0: 3230 3a41 087a 6341 bc3c f942 ff02 5440
00000200: 3c70 df42 943d ad41 ead6 9242 9df9 1141
00000210: 09e0 f041 04d8 3b41 294a 8f41 4164 f841
00000220: 8e18 2742 2af7 2142 267a cb42 27fa 0b42
00000230: 1e3a 2e42 3019 1341 a4b3 5d41 f3ee 1542
00000240: 2f59 7f42 8cfb c141 e8ca 5a41 98f6 ee42
00000250: 5919 6c41 84b5 5941 d3b4 7842 7e2b 0e42
00000260: 9df6 0e42 703e d342 a8a0 0543 351f eb3f
00000270: 660d d241 751c 0842 bcb5 1f41 f403 e841
00000280: 4b41 f540 65a3 8a40 1282 d842 7799 4241
00000290: 3e13 e841 0d8e 9d41 cba6 3240 223f 2442
000002a0: 146e ec41 87c1 9341 3bba e342 6c80 9d40
000002b0: c188 c841 6aa1 8641 0c54 2b41 f7e6 f940
000002c0: aa76 f241 4349 cf40 a496 8342 3c4b cf42
000002d0: 0865 4341 d678 5341 7058 b540 771d e341
000002e0: ada4 3a42 1d2b ee41 848c c142 7096 8a41
000002f0: 80be a341 d32d 4240 1a9a 8540 dc07 7d41
00000300: 8106 2441 5e26 3441 6826 1941 b5d6 9e41
00000310: fcb6 1841 1b4f 4542 0915 a541 4fab 1241
00000320: 2866 e841 4f7c aa40 456a 5541 4d3e 0442
00000330: 25d3 d441 eedb f740 9bca 1841 a0de 2441
00000340: 0155 b141 8dda 6241 a2eb 5641 1d39 a440
00000350: b6bf 2642 fd08 fd41 4c7d e440 c3b6 9041
00000360: fa25 5042 9c5c 2643 42cb b041 c52c 2041
00000370: 987b 7841 3f5a 8f41 2628 1042 0109 b741
00000380: c1d9 bf40 622a 0842 ea27 e940 75ca 4c41
00000390: 2acc b241 6098 8f41 f0bd ac41 35b1 e141
000003a0: 3c6c 1842 bba5 ae42 55e0 0b41 c5a5 ba41
000003b0: 4695 2f42 4b6e 9c42 fbe5 fd40 6aac 1f40
000003c0: ef7d 0741 5d35 4d42 5bf4 ce42 7158 4d42
000003d0: b08c 6641 99e7 9541 95d5 7942 cf03 3541
000003e0: 0595 cd42 f5f9 6341 d0c9 5242 95e9 9f40
000003f0: 24c4 2941 501c e241 4aa8 7042 b86c 1f41
