trained_weights/checkpoint_critic.pth (torch, 578357 bytes, 13 tensors)

fc1.weight f4 [400, 50]
0	0x8007a42f	-7.01746e-40
1	0x00013931	1.12352e-40
2	0x800248e4	-2.09819e-40
3	0x8001de7a	-1.71645e-40
4	0x8004f75d	-4.56079e-40
5	0x80060d28	-5.55733e-40
6	0x0007c906	7.14962e-40
7	0x80077106	-6.83394e-40
8	0x80042dd8	-3.83788e-40
9	0x0000dcf1	7.9259e-41
10	0x0003a2bf	3.33889e-40
11	0x000400a6	3.67575e-40
12	0x00054e48	4.8726e-40
13	0x8002593f	-2.15686e-40
14	0x00054798	4.8486e-40
15	0x00000553	1.91e-42
16	0x000773f3	6.84443e-40
17	0x8003c047	-3.44483e-40
18	0x8004ae74	-4.29924e-40
19	0x8005e45f	-5.41102e-40
20	0x800591d1	-5.11487e-40
21	0x00056e16	4.98669e-40
22	0x80074c7a	-6.70283e-40
23	0x80020193	-1.84236e-40
24	0x0003016d	2.76018e-40
25	0x0003c210	3.45123e-40
26	0x0002095b	1.87027e-40
27	0x8007599b	-6.74993e-40
28	0x8007b90e	-7.09234e-40
29	0x80047900	-4.10749e-40
30	0x00058b55	5.0916e-40
31	0x800295f9	-2.37471e-40
32	0x00025720	2.14926e-40
33	0x8002abe1	-2.4533e-40
34	0x0004120f	3.7382e-40
35	0x0006b290	6.15069e-40
36	0x8002f0cd	-2.70054e-40
37	0x000288aa	2.32697e-40
38	0x8004dabe	-4.45812e-40
39	0x800420fc	-3.79175e-40
40	0x8007d120	-7.17868e-40
41	0x80058d23	-5.09808e-40
42	0x0001bb59	1.59043e-40
43	0x8006a747	-6.11021e-40
44	0x00019ff6	1.49219e-40
45	0x0001846f	1.39344e-40
46	0x0002d9db	2.61823e-40
47	0x800590cc	-5.11121e-40
48	0x000533e6	4.77795e-40
49	0x0001fd31	1.82663e-40
50	0x00007e1f	4.5244e-41
51	0x8000fcfe	-9.0756e-41
52	0x8003fb22	-3.65596e-40
53	0x0007d4e9	7.19226e-40
54	0x0004b686	4.32819e-40
55	0x8006a6bb	-6.10825e-40
56	0x00001a14	9.355e-42
57	0x0006f64c	6.39368e-40
58	0x8002314c	-2.01355e-40
59	0x80054d34	-4.86873e-40
60	0x8003dfeb	-3.55833e-40
61	0x0006725c	5.92037e-40
62	0x0001e552	1.741e-40
63	0x80055772	-4.90547e-40
64	0x0000adca	6.2344e-41
65	0x0007ed9b	7.28085e-40
66	0x80019dfa	-1.48507e-40
67	0x80005827	-3.1623e-41
68	0x80066ad1	-5.89331e-40
69	0x00008459	4.7477e-41
70	0x80072d16	-6.59022e-40
71	0x00580869	8.08454e-39
72	0x80069893	-6.05746e-40
73	0x8007a3bb	-7.01584e-40
74	0x0000ce69	7.4046e-41
75	0x0006604b	5.85556e-40
76	0x000235fb	2.03036e-40
77	0x80063bbe	-5.72444e-40
78	0x00000313	1.103e-42
79	0x800538db	-4.79573e-40
80	0x0001bb3a	1.59e-40
81	0x00079715	6.97046e-40
82	0x8004268f	-3.81174e-40
83	0x000201b6	1.84285e-40
84	0x0000f8f0	8.9302e-41
85	0x8006ff41	-6.42581e-40
86	0x00062e75	5.67679e-40
87	0x8001d006	-1.6646e-40
88	0x80037322	-3.16808e-40
89	0x0001981d	1.46403e-40
90	0x0003c929	3.47669e-40
91	0x80005b2d	-3.2708e-41
92	0x00051a29	4.68562e-40
93	0x8005ab76	-5.20686e-40
94	0x000650b6	5.79967e-40
95	0x80d7ded3	-1.9824566e-38
96	0x00061e85	5.61961e-40
97	0x00078e0c	6.93805e-40
98	0x000789b0	6.92241e-40
99	0x0000fa87	8.9872e-41
100	0x80033b56	-2.96792e-40
101	0x80062daa	-5.67394e-40
102	0x0004deba	4.47241e-40
103	0x0000a1ad	5.7998e-41
104	0x0007e326	7.24334e-40
105	0x8005a40e	-5.18029e-40
106	0x80070ca8	-6.47389e-40
107	0x0007b09f	7.06208e-40
108	0x0003f57d	3.63571e-40
109	0x8002eb15	-2.68003e-40
110	0x80000c63	-4.444e-42
111	0x00031ff2	2.86966e-40
112	0x00016e78	1.31464e-40
113	0x0003f5b4	3.63648e-40
114	0x80081f6c	-7.45956e-40
115	0x0002135f	1.9062e-40
116	0x800786ed	-6.91251e-40
117	0x800060df	-3.4751e-41
118	0x0005b464	5.2389e-40
119	0x80082922	-7.4944e-40
120	0x80045edb	-4.0137e-40
121	0x8001d170	-1.66968e-40
122	0x80058837	-5.08042e-40
123	0x0003764e	3.17946e-40
124	0x0006fee6	6.42453e-40
125	0x80033842	-2.95688e-40
126	0x80044b32	-3.94317e-40
127	0x8007f4fa	-7.3073e-40
128	0x000517e9	4.67755e-40
129	0x0006a7b1	6.1117e-40
130	0x000748da	6.68983e-40
131	0x0002d82b	2.61217e-40
132	0x8005ac66	-5.21022e-40
133	0x8001fe30	-1.83021e-40
134	0x00038d6b	3.26238e-40
135	0x800395e0	-3.29272e-40
136	0x80047b54	-4.11584e-40
137	0x8003f6ca	-3.64038e-40
138	0x0000fb37	9.0119e-41
139	0x8007dc97	-7.21981e-40
140	0x80079975	-6.97898e-40
141	0x0007d1d2	7.18118e-40
142	0x0000d2bb	7.5596e-41
143	0x8007f44b	-7.30484e-40
144	0x00019641	1.45736e-40
145	0x80063918	-5.71494e-40
146	0x0000111a	6.135e-42
147	0x80079192	-6.95069e-40
148	0x80017671	-1.34324e-40
149	0x000630a7	5.68466e-40
150	0x3c284eb0	0.010272667
151	0xbabaeea3	-0.0014261793
152	0xbb85101d	-0.0040607587
153	0xb94180fd	-0.00018453966
154	0xbce1d68f	-0.02756813
155	0x3c00aac0	0.00785321
156	0x369a5407	4.5993397e-06
157	0x3b3bc9b8	0.002865417
158	0x3cd77966	0.026303004
159	0xba4ce2bf	-0.000781577
160	0x3c78fcb1	0.015196965
161	0xbc7b70c2	-0.015346708
162	0xbc4f5cbe	-0.012656389
163	0xbb9fab72	-0.004872733
164	0x3c881444	0.016611226
165	0xbc7d08ee	-0.015444024
166	0x3b3fab23	0.0029246293
167	0xbaa3633c	-0.0012465487
168	0xbcb00d17	-0.021490617
169	0x3c4550ae	0.012043161
170	0x3c904eb8	0.017615661
171	0x3c2ba370	0.010475978
172	0xbc2d08bf	-0.010561167
173	0x3bfc8954	0.0077068005
174	0xbb2eef50	-0.0026692934
175	0xbb338595	-0.0027392854
176	0xbb83c545	-0.004021319
177	0x3b069c8d	0.002054009
178	0x3ce9c993	0.0285385
179	0x3bb8a4c2	0.005634875
180	0x3a7914cc	0.0009501695
181	0x38db3fa6	0.00010454589
182	0xbb87773b	-0.0041340864
183	0xba8ef6d0	-0.0010907296
184	0xb8693fc9	-5.5610933e-05
185	0x3a7f8d62	0.00097485457
186	0x3c5873c3	0.0132111935
187	0xbb9cb2d7	-0.0047820616
188	0xbbdc36e3	-0.00672041
189	0x3a7f5bcb	0.0009741156
190	0x3af7646f	0.0018874536
191	0x3b8cafd9	0.0042934236
192	0xba153c75	-0.0005692908
193	0x3a8358ea	0.0010021005
194	0xbc87a431	-0.016557785
195	0x3c2b1f67	0.010444499
196	0xbb18c18c	-0.0023308722
197	0x3a6f501a	0.00091290625
198	0xbb97c0d0	-0.0046311393
199	0xbaa90db1	-0.0012897757
200	0x0006034c	5.52196e-40
201	0x800620b3	-5.62743e-40
202	0x00055e71	4.93057e-40
203	0x800384e4	-3.23179e-40
204	0x0005c297	5.28983e-40
205	0x80063e72	-5.73414e-40
206	0x00062e8d	5.67712e-40
207	0x0005132d	4.66056e-40
208	0x0007d831	7.20403e-40
209	0x8004a8d6	-4.27909e-40
210	0x800741b6	-6.66421e-40
211	0x8003d1f8	-3.50829e-40
212	0x8007bede	-7.11319e-40
213	0x80017bf2	-1.36299e-40
214	0x00076639	6.79519e-40
215	0x80006bd9	-3.8688e-41
216	0x8007959b	-6.96517e-40
217	0x8001ea15	-1.75808e-40
218	0x0003d414	3.51586e-40
219	0x80053368	-4.77619e-40
220	0x000438a7	3.87665e-40
221	0x0004455d	3.92225e-40
222	0x000644d8	5.7571e-40
223	0x00051988	4.68336e-40
224	0x000421cb	3.79465e-40
225	0x80064b54	-5.78036e-40
226	0x0007db77	7.21578e-40
227	0x0007f779	7.31625e-40
228	0x8006bc8b	-6.1865e-40
229	0x0005c151	5.28526e-40
230	0x80058edf	-5.1043e-40
231	0x00010ddf	9.6812e-41
232	0x8007eeb4	-7.28479e-40
233	0x0006ac6f	6.1287e-40
234	0x0002811d	2.29988e-40
235	0x00020474	1.85268e-40
236	0x80050b08	-4.63135e-40
237	0x00026f3f	2.23579e-40
238	0x8000705c	-4.0307e-41
239	0x800505f3	-4.61312e-40
240	0x00004bf0	2.7241e-41
241	0x8005a8d2	-5.19739e-40
242	0x80043762	-3.8721e-40
243	0x800755fc	-6.73694e-40
244	0x8003b94e	-3.41981e-40
245	0x0005ad2e	5.21303e-40
246	0x0007b383	7.07245e-40
247	0x8004f271	-4.54314e-40
248	0x8002f6b0	-2.72166e-40
249	0x0002c88c	2.55614e-40
250	0x0004fbba	4.57644e-40
251	0x0006edf1	6.3637e-40
252	0x00005e5b	3.3848e-41
253	0x80015106	-1.20901e-40
254	0x0006b481	6.15766e-40
255	0x8005959a	-5.12844e-40

fc1.bias f4 [400]
0	0x0004d853	4.44944e-40
1	0x000080b2	4.6167e-41
2	0x0005e9e8	5.43087e-40
3	0xb4b05fc0	-3.2852222e-07
4	0x0003f48e	3.63236e-40
5	0x800060ce	-3.4727e-41
6	0x800470a4	-4.0775e-40
7	0x0000789e	4.3269e-41
8	0x33e9b203	1.0882288e-07
9	0x80013172	-1.09573e-40
10	0x34eda30d	4.4263325e-07
11	0x00031bf2	2.85531e-40
12	0xb426a92b	-1.5521498e-07
13	0x00010261	9.2689e-41
14	0x80060d7d	-5.55852e-40
15	0x34639bef	2.1197751e-07
16	0x8004a54f	-4.26644e-40
17	0x2e8968d0	6.248657e-11
18	0x00029971	2.38715e-40
19	0x0005ff76	5.5082e-40
20	0x8007e4df	-7.24952e-40
21	0x0002522f	2.13153e-40
22	0x0000863c	4.8154e-41
23	0x80083a9a	-7.55706e-40
24	0x3248257d	1.1650056e-08
25	0x0005a352	5.17766e-40
26	0x000281ff	2.30305e-40
27	0x0005313e	4.76842e-40
28	0x8002b180	-2.47346e-40
29	0x8004e9bb	-4.51189e-40
30	0x0007332f	6.6121e-40
31	0x00002c49	1.5887e-41
32	0xb592ce6f	-1.0937928e-06
33	0xb264b406	-1.3312279e-08
34	0x0007a6ee	7.02732e-40
35	0x8001a0e0	-1.49547e-40
36	0x80081a4b	-7.44116e-40
37	0xb4f195b7	-4.499868e-07
38	0x8000e7e5	-8.3188e-41
39	0x00073398	6.61357e-40
40	0x8004e88d	-4.50765e-40
41	0x0008039a	7.35976e-40
42	0x8003bed2	-3.4396e-40
43	0xb55a9f1b	-8.144286e-07
44	0x000178dc	1.35192e-40
45	0xb5486fd8	-7.466856e-07
46	0x000474ce	4.09244e-40
47	0x0001faa8	1.81754e-40
48	0x800049a7	-2.6421e-41
49	0x0005a30f	5.17672e-40
50	0x0007b2f5	7.07046e-40
51	0x8008030c	-7.35777e-40
52	0x8003ca5e	-3.48102e-40
53	0xb5a81d57	-1.2525514e-06
54	0x0007d103	7.17828e-40
55	0x30463bbf	7.2116885e-10
56	0x80075a65	-6.75276e-40
57	0x00075dc6	6.76488e-40
58	0xb584cd59	-9.89453e-07
59	0x34e45bb9	4.2535046e-07
60	0x80023ec6	-2.0619e-40
61	0x000198ed	1.46695e-40
62	0x348aba73	2.5840163e-07
63	0x000389f3	3.24993e-40
64	0x000438c4	3.87706e-40
65	0x0005404a	4.8224e-40
66	0xb42202fa	-1.5088509e-07
67	0x00069e3a	6.07774e-40
68	0x0005e8eb	5.42733e-40
69	0x000447bc	3.93075e-40
70	0xb58a4fad	-1.030499e-06
71	0x80033dc0	-2.97658e-40
72	0x00066736	5.88038e-40
73	0x00082881	7.49214e-40
74	0x33edc294	1.1071566e-07
75	0x8006f4fa	-6.38894e-40
76	0x80053dda	-4.81366e-40
77	0x8007008a	-6.43042e-40
78	0x8007f31d	-7.30061e-40
79	0x000261cd	2.18755e-40
80	0x341785d9	1.4111664e-07
81	0x8cc1b906	-2.9847715e-31
82	0x00051df4	4.69923e-40
83	0xb52a37c5	-6.341109e-07
84	0x0005a46d	5.18162e-40
85	0x80008e48	-5.1041e-41
86	0x00024db7	2.1155e-40
87	0x00064a22	5.77607e-40
88	0x800112d9	-9.8597e-41
89	0x8001803a	-1.37835e-40
90	0x800633f9	-5.69657e-40
91	0x80077265	-6.83885e-40
92	0x34c9033d	3.7441524e-07
93	0x0001f447	1.79466e-40
94	0x00065981	5.83121e-40
95	0xb3a9eeac	-7.91309e-08
96	0x80039dad	-3.3207e-40
97	0x8004b209	-4.31209e-40
98	0x80010508	-9.364e-41
99	0x34c0ca90	3.591017e-07
100	0x8000cc08	-7.3193e-41
101	0x00060882	5.54065e-40
102	0x80031207	-2.81973e-40
103	0x80083f1a	-7.5732e-40
104	0x0003820b	3.22157e-40
105	0x8005a10c	-5.1695e-40
106	0x80000c79	-4.474e-42
107	0x8004fb79	-4.57553e-40
108	0x00061890	5.59824e-40
109	0x0006ef1d	6.3679e-40
110	0x80000bd0	-4.238e-42
111	0x000219fe	1.92995e-40
112	0x989471e5	-3.8372107e-24
113	0x00035460	3.05775e-40
114	0xb57e42b5	-9.4719445e-07
115	0x2b9a9e56	1.0986305e-12
116	0x0002abfc	2.45367e-40
117	0x80024319	-2.07741e-40
118	0x80071fce	-6.54258e-40
119	0x0002cc5d	2.56983e-40
120	0x80021f02	-1.94794e-40
121	0xb3ac3f39	-8.020874e-08
122	0x80072751	-6.56953e-40
123	0x800794e6	-6.96263e-40
124	0x0002c10c	2.52923e-40
125	0x0007c74b	7.14341e-40
126	0x0004f7c9	4.5623e-40
127	0xb098e3ed	-1.1124236e-09
128	0x80008b4e	-4.9973e-41
129	0x34a12b69	3.0020172e-07
130	0x00037540	3.17568e-40
131	0x35110f6e	5.403916e-07
132	0x8002f4d4	-2.71499e-40
133	0x8005b178	-5.22841e-40
134	0x8000ad6a	-6.2209e-41
135	0x0004427e	3.91195e-40
136	0x800251e1	-2.13044e-40
137	0x80012ab9	-1.07161e-40
138	0x00022cbe	1.99721e-40
139	0x80072d9e	-6.59213e-40
140	0x8005e625	-5.41738e-40
141	0x000185b0	1.39794e-40
142	0x3390c1bc	6.7407626e-08
143	0xb208e33f	-7.967912e-09
144	0x8006a2ba	-6.09388e-40
145	0x00003a5d	2.0937e-41
146	0x8004759e	-4.09535e-40
147	0x0007c3b4	7.13054e-40
148	0xa4cc60c2	-8.863481e-17
149	0x800127c0	-1.06095e-40
150	0x8003ad77	-3.37734e-40
151	0x80017310	-1.33112e-40
152	0x0001c943	1.64035e-40
153	0x80044ebf	-3.95591e-40
154	0x00022ad4	1.99035e-40
155	0x8007078b	-6.45554e-40
156	0x000546b9	4.84548e-40
157	0x80000f0c	-5.398e-42
158	0x80068c0b	-6.01251e-40
159	0x00064615	5.76154e-40
160	0x80051aef	-4.6884e-40
161	0x000381ed	3.22115e-40
162	0x8001db1e	-1.7044e-40
163	0x321434cb	8.6267375e-09
164	0x8006c443	-6.21418e-40
165	0xb38caa73	-6.5502626e-08
166	0x800678d8	-5.94364e-40
167	0x0003b270	3.39518e-40
168	0x8007ddac	-7.2237e-40
169	0x000cea6b	1.186119e-39
170	0x34bc2c10	3.5049788e-07
171	0x3476aac4	2.297266e-07
172	0x8010ac70	-1.531227e-39
173	0x80045958	-3.99392e-40
174	0xb520dd03	-5.992626e-07
175	0x0007d27a	7.18353e-40
176	0xb40ca6a7	-1.3099144e-07
177	0xb4490780	-1.8722312e-07
178	0x80076f58	-6.82791e-40
179	0x3472a13c	2.2596663e-07
180	0x8001067c	-9.4162e-41
181	0x3536436a	6.7898384e-07
182	0xaf9e70c5	-2.882016e-10
183	0x8005c3fa	-5.2948e-40
184	0x80008027	-4.5972e-41
185	0x00011d5e	1.0237e-40
186	0x80055193	-4.88441e-40
187	0x34ac62f9	3.210951e-07
188	0x000059bc	3.219e-41
189	0x351afcac	5.7737157e-07
190	0x80024db3	-2.11544e-40
191	0x8002781f	-2.26762e-40
192	0x91e6da46	-3.6422123e-28
193	0x3395b744	6.971689e-08
194	0x80014d8c	-1.19654e-40
195	0x8005677e	-4.96303e-40
196	0xb3ab6b1e	-7.9822925e-08
197	0x8007cd63	-7.16527e-40
198	0xb41a37fc	-1.4362735e-07
199	0x8006d024	-6.2568e-40
200	0x8005c5c3	-5.30121e-40
201	0x0003135b	2.8245e-40
202	0x800260bf	-2.18377e-40
203	0x000645f5	5.76109e-40
204	0x8005d1a1	-5.34378e-40
205	0x8002fbfe	-2.74069e-40
206	0x0000002e	6.4e-44
207	0x8002b209	-2.47538e-40
208	0x80031b46	-2.8529e-40
209	0xb460a4ff	-2.0921651e-07
210	0x00036521	3.11785e-40
211	0x80071b24	-6.52585e-40
212	0x00012eff	1.08695e-40
213	0x80016963	-1.29641e-40
214	0x80047af4	-4.11449e-40
215	0x800747cc	-6.68604e-40
216	0x800774d9	-6.84766e-40
217	0x0001c791	1.63426e-40
218	0x0006bbd0	6.18387e-40
219	0xb4bf2252	-3.5601494e-07
220	0x00017c81	1.36499e-40
221	0x000309c4	2.7901e-40
222	0x800702b9	-6.43825e-40
223	0x34f092a8	4.481019e-07
224	0x8006021d	-5.51771e-40
225	0x00034f08	3.03858e-40
226	0x00055eec	4.93229e-40
227	0x00076825	6.80208e-40
228	0xb4f4e8f0	-4.5618026e-07
229	0x800799db	-6.98041e-40
230	0x0007c8b4	7.14847e-40
231	0x349a6a08	2.8761883e-07
232	0x800387d6	-3.24235e-40
233	0x0005c282	5.28954e-40
234	0x80022599	-1.97158e-40
235	0x323c15fa	1.0948037e-08
236	0x00009037	5.1735e-41
237	0x0006cb87	6.24025e-40
238	0x800239ec	-2.0445e-40
239	0x0007749e	6.84683e-40
240	0x800828f9	-7.49382e-40
241	0x8003f9cd	-3.65118e-40
242	0x800108f2	-9.5044e-41
243	0x0005517f	4.88413e-40
244	0x0002d603	2.60444e-40
245	0x80069f57	-6.08173e-40
246	0xb498d590	-2.8467593e-07
247	0x358ab684	1.033492e-06
248	0x000182ad	1.38713e-40
249	0x8007af6a	-7.05775e-40
250	0x000333d1	2.94095e-40
251	0x00030762	2.78155e-40
252	0x32377df8	1.0680644e-08
253	0x800323ab	-2.88302e-40
254	0x8006d6e1	-6.28097e-40
255	0x0002ccd1	2.57145e-40

fc2.weight f4 [300, 402]
0	0x00028690	2.31943e-40
1	0x00001ce8	1.037e-41
2	0x0008012d	7.35106e-40
3	0x0007d290	7.18384e-40
4	0x000662da	5.86474e-40
5	0x00048349	4.14438e-40
6	0x000819be	7.43919e-40
7	0x0005a88d	5.19642e-40
8	0x8007a6b4	-7.0265e-40
9	0x0007e6cf	7.25647e-40
10	0x80061e27	-5.6183e-40
11	0x000812c2	7.41413e-40
12	0x00054418	4.83605e-40
13	0x80000003	-4e-45
14	0x0001d70b	1.68978e-40
15	0x8001d51a	-1.68282e-40
16	0x8000cad4	-7.2761e-41
17	0x00036a34	3.13605e-40
18	0x0003eb97	3.6002e-40
19	0x0000a29d	5.8335e-41
20	0x8007f08e	-7.29143e-40
21	0x0000e90e	8.3604e-41
22	0x0007a690	7.026e-40
23	0x8004580a	-3.98924e-40
24	0x8001a43d	-1.50753e-40
25	0x8007e55a	-7.25124e-40
26	0x0008181b	7.43331e-40
27	0x8005faf3	-5.49201e-40
28	0x8002097c	-1.87073e-40
29	0x00046784	4.04476e-40
30	0x00053902	4.79628e-40
31	0x8006ed95	-6.36241e-40
32	0x00063d81	5.73076e-40
33	0x8007346f	-6.61658e-40
34	0x0006eaa9	6.35193e-40
35	0x00024ed8	2.11955e-40
36	0x00080e0e	7.39726e-40
37	0x0003924b	3.27987e-40
38	0x800150a5	-1.20765e-40
39	0x00041f96	3.78673e-40
40	0x8005ece4	-5.44158e-40
41	0x8002ba99	-2.5061e-40
42	0x0000fc7d	9.0576e-41
43	0x00012232	1.04102e-40
44	0x8007bb48	-7.10032e-40
45	0x0001a2b6	1.50205e-40
46	0x000831a7	7.52496e-40
47	0x80039911	-3.30416e-40
48	0x800626fe	-5.65001e-40
49	0x000802da	7.35707e-40
50	0x00050600	4.6133e-40
51	0x00071e5d	6.53741e-40
52	0x800605a4	-5.53036e-40
53	0x8007cf29	-7.17164e-40
54	0x8005af0f	-5.21977e-40
55	0x8003993b	-3.30475e-40
56	0x0007d354	7.18659e-40
57	0x8002f6e0	-2.72233e-40
58	0x00010637	9.4065e-41
59	0x800810a3	-7.40652e-40
60	0x80030718	-2.78051e-40
61	0x00066690	5.87805e-40
62	0x8002c71a	-2.55095e-40
63	0x80027756	-2.2648e-40
64	0x80068b45	-6.00973e-40
65	0x0000ecc8	8.4941e-41
66	0x80064d82	-5.78818e-40
67	0x80082224	-7.46931e-40
68	0x800222c7	-1.96147e-40
69	0x0004fde0	4.58415e-40
70	0x8005e3b3	-5.4086e-40
71	0x80000414	-1.463e-42
72	0x800824a2	-7.47825e-40
73	0x00045406	3.97484e-40
74	0x8006bbcf	-6.18386e-40
75	0x800672f6	-5.92253e-40
76	0x000502c6	4.60172e-40
77	0x00026bd0	2.22347e-40
78	0x800492ec	-4.20048e-40
79	0x00080944	7.38008e-40
80	0x00008d0e	5.0601e-41
81	0x000287f3	2.3244e-40
82	0x800073ba	-4.1515e-41
83	0x800650c1	-5.79982e-40
84	0x0008248e	7.47797e-40
85	0x8003f35c	-3.62807e-40
86	0x80034022	-2.98513e-40
87	0x8001b07d	-1.55148e-40
88	0x8007ff48	-7.34426e-40
89	0x800694d2	-6.044e-40
90	0x8005a5bc	-5.18632e-40
91	0x8006d943	-6.28952e-40
92	0x800643d6	-5.75348e-40
93	0x8002a1bb	-2.41689e-40
94	0x0007d99a	7.20909e-40
95	0x8001e06b	-1.72341e-40
96	0x8007d761	-7.20112e-40
97	0x80031961	-2.84611e-40
98	0x8001ce0e	-1.65754e-40
99	0x80019ad1	-1.47373e-40
100	0x0004a206	4.25465e-40
101	0x80060506	-5.52815e-40
102	0x800821f3	-7.46863e-40
103	0x00000173	5.2e-43
104	0x8002c560	-2.54476e-40
105	0x00080c6b	7.39139e-40
106	0x8007d421	-7.18946e-40
107	0x0005dec0	5.39085e-40
108	0x80072320	-6.55449e-40
109	0x0004c5b8	4.3827e-40
110	0x800454b4	-3.97728e-40
111	0x00032443	2.88515e-40
112	0x8004a1e9	-4.25424e-40
113	0x0003fcb6	3.66162e-40
114	0x800099c4	-5.5161e-41
115	0x8003b398	-3.39933e-40
116	0x8007feec	-7.34297e-40
117	0x80060c27	-5.55372e-40
118	0x8007f812	-7.3184e-40
119	0x80048840	-4.16219e-40
120	0x8006d353	-6.26822e-40
121	0x800645d9	-5.7607e-40
122	0x80057288	-5.00264e-40
123	0x0007b4b0	7.07667e-40
124	0x00013e43	1.14171e-40
125	0x00020ea9	1.8893e-40
126	0x8007193f	-6.51905e-40
127	0x000070ae	4.0422e-41
128	0x0005ce27	5.33131e-40
129	0x0001ff6d	1.83465e-40
130	0x00064a57	5.77681e-40
131	0x00049ec2	4.24294e-40
132	0x000467d5	4.0459e-40
133	0x80020150	-1.84142e-40
134	0x00013359	1.10256e-40
135	0x00015aaa	1.2436e-40
136	0x8001a160	-1.49726e-40
137	0x8007f909	-7.32185e-40
138	0x00002ef1	1.684e-41
139	0x8004717a	-4.0805e-40
140	0x80076848	-6.80258e-40
141	0x0002c1da	2.53212e-40
142	0x800653ab	-5.81027e-40
143	0x80079939	-6.97814e-40
144	0x8002c05a	-2.52674e-40
145	0x00034a09	3.02065e-40
146	0x0003f1d8	3.62264e-40
147	0x00014cce	1.19388e-40
148	0x800592bd	-5.11817e-40
149	0x0002ef7e	2.69585e-40
150	0x8008468a	-7.59989e-40
151	0x00014ca5	1.1933e-40
152	0x0000a409	5.8845e-41
153	0x8002604d	-2.18217e-40
154	0x00079162	6.95002e-40
155	0x0006dc45	6.30031e-40
156	0x00031236	2.8204e-40
157	0x8005e1e0	-5.40206e-40
158	0x800818b0	-7.4354e-40
159	0x80012679	-1.05637e-40
160	0x8004eca8	-4.52238e-40
161	0x80013bcc	-1.13287e-40
162	0x000746a2	6.68187e-40
163	0x0004015f	3.67834e-40
164	0x0001d55a	1.68372e-40
165	0x00072257	6.55167e-40
166	0x80016324	-1.274e-40
167	0x80072f00	-6.59709e-40
168	0x0006ae43	6.13526e-40
169	0x8004ca4f	-4.39917e-40
170	0x8004f546	-4.5533e-40
171	0x0006aedc	6.13741e-40
172	0x000358f8	3.07422e-40
173	0x0005694d	4.96952e-40
174	0x80033ca4	-2.9726e-40
175	0x8006e4c9	-6.33086e-40
176	0x80034def	-3.03464e-40
177	0x0001d3d9	1.67832e-40
178	0x00058930	5.08391e-40
179	0x00003f7d	2.2775e-41
180	0x8006cd46	-6.24651e-40
181	0x00003d80	2.2062e-41
182	0x00043d7c	3.89398e-40
183	0x8004202e	-3.78886e-40
184	0x0001a527	1.51081e-40
185	0x8008028e	-7.356e-40
186	0x80040f17	-3.72755e-40
187	0x00062af7	5.66426e-40
188	0x80083758	-7.54538e-40
189	0x0002d350	2.59476e-40
190	0x80084b9d	-7.61809e-40
191	0x80068cee	-6.01569e-40
192	0x0000d5c8	7.669e-41
193	0x8004c4c1	-4.37924e-40
194	0x000070b7	4.0434e-41
195	0x8007d8a1	-7.2056e-40
196	0x80062a84	-5.66265e-40
197	0x800719ef	-6.52152e-40
198	0x00078342	6.89935e-40
199	0x80058cc3	-5.09673e-40
200	0x80048ee0	-4.18596e-40
201	0x80000e2c	-5.084e-42
202	0x00071398	6.49877e-40
203	0x800044d1	-2.4687e-41
204	0x8002f235	-2.70559e-40
205	0x0006fbb8	6.41313e-40
206	0x00044f30	3.95749e-40
207	0x0007a96f	7.0363e-40
208	0x00061586	5.58734e-40
209	0x0007bcff	7.10647e-40
210	0x00051f82	4.7048e-40
211	0x80033677	-2.95045e-40
212	0x00006f41	3.991e-41
213	0x8003cb65	-3.4847e-40
214	0x000015c1	7.804e-42
215	0x80083c60	-7.56342e-40
216	0x8002bb4d	-2.50862e-40
217	0x0007d9a6	7.20926e-40
218	0x0004264e	3.81083e-40
219	0x8000ceb0	-7.4146e-41
220	0x8007dc82	-7.21952e-40
221	0x80068faf	-6.02557e-40
222	0x00028a68	2.33322e-40
223	0x80003c28	-2.158e-41
224	0x0006a3ce	6.09775e-40
225	0x00042533	3.80687e-40
226	0x800182d6	-1.3877e-40
227	0x8006db07	-6.29585e-40
228	0x800366d7	-3.12398e-40
229	0x0004fd2b	4.58162e-40
230	0x00032320	2.88107e-40
231	0x00019aae	1.47324e-40
232	0x8001db18	-1.70432e-40
233	0x80082b72	-7.50269e-40
234	0x80033e74	-2.9791e-40
235	0x00006233	3.5227e-41
236	0x8004d4f2	-4.43732e-40
237	0x0005988c	5.13901e-40
238	0x0007deb0	7.22734e-40
239	0x80053361	-4.77609e-40
240	0x80001680	-8.071e-42
241	0x00027686	2.26189e-40
242	0x0005ee7f	5.44734e-40
243	0x0007edf0	7.28204e-40
244	0x0006c153	6.20365e-40
245	0x8006f936	-6.40413e-40
246	0x00025293	2.13293e-40
247	0x8007998a	-6.97928e-40
248	0x8000fda8	-9.0995e-41
249	0x00084c22	7.61995e-40
250	0x8003a972	-3.36292e-40
251	0x00042f84	3.84387e-40
252	0x000178e2	1.352e-40
253	0x0003002e	2.75571e-40
254	0x80082427	-7.47653e-40
255	0x800692ab	-6.03628e-40

fc2.bias f4 [300]
0	0xab334173	-6.3684404e-13
1	0xaade5241	-3.9492197e-13
2	0xb1b8aa90	-5.3744955e-09
3	0x3c96616e	0.018357005
4	0xa8b5a1e1	-2.016524e-14
5	0x8e54ac9d	-2.6214128e-30
6	0xa59dbd04	-2.736324e-16
7	0x9e0b296a	-7.367163e-21
8	0xa4a7ff81	-7.2857546e-17
9	0xac36e2c7	-2.5989642e-12
10	0xb7b741fd	-2.1846028e-05
11	0x3b952e1d	0.0045526163
12	0x987f337e	-3.2983974e-24
13	0xa996d2db	-6.697916e-14
14	0xb023545d	-5.941894e-10
15	0xab31aa8e	-6.3119724e-13
16	0xb64d77db	-3.0617146e-06
17	0xa29c6dbe	-4.240008e-18
18	0x94089c14	-6.897026e-27
19	0x9d1a1334	-2.0391658e-21
20	0xa622bc4b	-5.6460225e-16
21	0xb5dc2837	-1.6402981e-06
22	0xb96f2d54	-0.00022809702
23	0x3696a526	4.489574e-06
24	0x37bb1e60	2.2306282e-05
25	0xa0544db9	-1.7982815e-19
26	0x9c87ca82	-8.985898e-22
27	0xa251c5f3	-2.8429575e-18
28	0xba4d143f	-0.00078231463
29	0xbb92567c	-0.004465876
30	0xaf889e8b	-2.4850907e-10
31	0x377c45d7	1.5036631e-05
32	0x3c5adc83	0.013358238
33	0xad88b176	-1.5540218e-11
34	0x39a5e9d8	0.0003164548
35	0xb6ca291b	-6.0248544e-06
36	0xbc6c9628	-0.014440097
37	0xbb6054d2	-0.0034230244
38	0xb0462ae9	-7.209296e-10
39	0x38ac9ae4	8.23045e-05
40	0xba1c379e	-0.00059592153
41	0x820983e3	-1.010302e-37
42	0xa9b3e0d0	-7.9881956e-14
43	0x3a3a1cfb	0.00070996553
44	0xadbf32f3	-2.1736812e-11
45	0xa9585838	-4.8038152e-14
46	0xb4069073	-1.2532273e-07
47	0xb38811fc	-6.336265e-08
48	0x394dcf27	0.00019627494
49	0xbb16abc5	-0.0022990566
50	0xacd5ecce	-6.0801147e-12
51	0xa58c34da	-2.4321942e-16
52	0x9e0d06cc	-7.4658834e-21
53	0xa054ceaa	-1.8025478e-19
54	0x88b19257	-1.0687204e-33
55	0x88bbdf53	-1.1307156e-33
56	0xb811012f	-3.4571796e-05
57	0xb3042761	-3.076946e-08
58	0xbb2b6ccf	-0.0026157384
59	0x3cb4eb54	0.02208487
60	0x9cae2e1a	-1.1526271e-21
61	0x395c9e57	0.00021039821
62	0xb80d9556	-3.37561e-05
63	0x3bf4a1e4	0.007465588
64	0xbacbd5ca	-0.0015551385
65	0x9ab08960	-7.3013835e-23
66	0xb84e359d	-4.916416e-05
67	0xaccbcd86	-5.7924247e-12
68	0xb4f56a38	-4.571209e-07
69	0x3cf23526	0.029566359
70	0x3bfca4e7	0.0077100876
71	0x3cdc3e09	0.02688505
72	0x3cce81b2	0.025208328
73	0x3b657109	0.003501
74	0xbba07c43	-0.0048976257
75	0x2c69e1d5	3.3236653e-12
76	0xbade2ff1	-0.0016951544
77	0xac0fb7ff	-2.042366e-12
78	0x28ba01d5	2.0650943e-14
79	0xa55e6123	-1.9288342e-16
80	0xb8834833	-6.260015e-05
81	0xab641540	-8.103136e-13
82	0xbb2d57ae	-0.0026449966
83	0x9aaed801	-7.2313686e-23
84	0x3804f80b	3.170226e-05
85	0xb9c74266	-0.00038005708
86	0xadcd8b91	-2.3367782e-11
87	0xb37ccbe4	-5.885876e-08
88	0xa5403238	-1.667036e-16
89	0x3ca31b67	0.019910527
90	0xb3d1bbf3	-9.766509e-08
91	0x3cb5a165	0.022171685
92	0x3d0e2226	0.034700535
93	0x83fe51a8	-1.4947526e-36
94	0x1e4b2d36	1.075608e-20
95	0xb43dfb7d	-1.7693488e-07
96	0xa4443dc6	-4.255305e-17
97	0xba5654a1	-0.0008176063
98	0xbb185569	-0.0023244268
99	0xbb8078b1	-0.0039206375
100	0x9d15a811	-1.9806874e-21
101	0xab917b71	-1.0337132e-12
102	0xafa454ea	-2.989176e-10
103	0xa599e0c3	-2.6693574e-16
104	0x93456bff	-2.4918142e-27
105	0x3b78342c	0.0037872894
106	0xbb17bdd8	-0.0023153927
107	0xa74dba63	-2.8550505e-15
108	0x8d2e13b2	-5.3641597e-31
109	0xba3f6210	-0.0007300684
110	0x3cb3c99d	0.021946723
111	0x911aaec8	-1.2202317e-28
112	0xbaf89f77	-0.0018968423
113	0x9fc59b9c	-8.369018e-20
114	0xafbbb41f	-3.4143086e-10
115	0xb206d192	-7.847477e-09
116	0x8ad25f4f	-2.0258116e-32
117	0xa719a95a	-2.132482e-15
118	0x8e4a8c4d	-2.4965975e-30
119	0xb5bae79a	-1.3925485e-06
120	0x83b60040	-1.0697056e-36
121	0x3c17e6ba	0.009271318
122	0x925c774b	-6.95668e-28
123	0xb25244db	-1.2239265e-08
124	0xb5c632e3	-1.476696e-06
125	0xaa1ff834	-1.420815e-13
126	0xb89f420c	-7.594013e-05
127	0xb6ba9f1c	-5.5617547e-06
128	0xb6fabe34	-7.472723e-06
129	0xa815bb85	-8.311823e-15
130	0xbaba5937	-0.0014217262
131	0xaacc4d60	-3.629137e-13
132	0xb82cb86e	-4.117976e-05
133	0xba1e85e1	-0.0006047171
134	0xbaac7a28	-0.0013158964
135	0xa7051f7c	-1.8474525e-15
136	0xb5f780db	-1.8440436e-06
137	0x9bcc4705	-3.3794864e-22
138	0x3c85cecd	0.016333962
139	0xaf262bd6	-1.5113186e-10
140	0xb9ba883a	-0.0003557818
141	0xb81c5da8	-3.7280523e-05
142	0x98a953f1	-4.3770235e-24
143	0xaed06f2a	-9.4784916e-11
144	0x3cde32e3	0.027123874
145	0xaad82690	-3.8396066e-13
146	0xb87494cc	-5.831271e-05
147	0xa24180c6	-2.622455e-18
148	0x3cc58e95	0.02411584
149	0x9b87c82f	-2.2463242e-22
150	0xabf2ebd6	-1.7260592e-12
151	0xa7b649f7	-5.059534e-15
152	0xb618bbd9	-2.2759107e-06
153	0x9dfa96ce	-6.6330377e-21
154	0xb9961949	-0.00028629068
155	0xb5b7e485	-1.370107e-06
156	0xb9fa5a89	-0.0004775117
157	0xbc8d1613	-0.01722244
158	0xbac01404	-0.0014654403
159	0x920c1899	-4.420653e-28
160	0xbc90e9fe	-0.017689701
161	0xa603e792	-4.576359e-16
162	0xb962ece0	-0.00021641282
163	0xbaf9909e	-0.0019040292
164	0xafffc3e0	-4.6523407e-10
165	0x961a9207	-1.2486099e-25
166	0xb744dd71	-1.1734069e-05
167	0x0ca8a171	2.5981662e-31
168	0x977a53e9	-8.0885266e-25
169	0xb10a7a05	-2.0151003e-09
170	0xa9a7c0e3	-7.44975e-14
171	0xbac794b5	-0.0015226813
172	0xbce81786	-0.02833153
173	0xa63ec00a	-6.6179754e-16
174	0xb5c68381	-1.4790422e-06
175	0x37d28762	2.5096993e-05
176	0xb700335e	-7.641354e-06
177	0xbb00cbc6	-0.0019652708
178	0xa4c8f9d0	-8.715937e-17
179	0xb84b2f22	-4.8442867e-05
180	0xadf32805	-2.7643674e-11
181	0xb42e5ecb	-1.6239498e-07
182	0xaaec31dd	-4.195662e-13
183	0xb8507e5a	-4.970874e-05
184	0xa56d158c	-2.0563774e-16
185	0xaa73bf25	-2.1649052e-13
186	0xb25ed952	-1.2971514e-08
187	0x8ca5ac4d	-2.5525975e-31
188	0x9fd6799f	-9.083373e-20
189	0x3ba17dc5	0.004928323
190	0xa813cf30	-8.205066e-15
191	0xa59663ac	-2.6088392e-16
192	0x9f7dc51a	-5.3737873e-20
193	0xa0d2cb56	-3.570994e-19
194	0xa1fdc14d	-1.7195113e-18
195	0xb7c2111e	-2.3134573e-05
196	0x9f17cdc6	-3.2145706e-20
197	0xb94cb3b3	-0.00019521899
198	0x9a840631	-5.4603923e-23
199	0xb6a6c3a6	-4.969962e-06
200	0xa597e227	-2.634757e-16
201	0x3c42d471	0.01189147
202	0x25f6a8f8	4.2788695e-16
203	0xa20162cb	-1.753506e-18
204	0x9baeda17	-2.8926823e-22
205	0xb5017ac6	-4.8234904e-07
206	0x3aaa70a9	0.0013003546
207	0x8e35cadf	-2.2407651e-30
208	0xba7be8d7	-0.0009609586
209	0xbabbb9df	-0.0014322362
210	0xb1812792	-3.7588928e-09
211	0xbadb943a	-0.0016752549
212	0xbb1e66e6	-0.002417022
213	0xb94b0d31	-0.00019364503
214	0xa6baedcb	-1.2970797e-15
215	0xad53d313	-1.2040829e-11
216	0xb4ad1ddb	-3.2245484e-07
217	0xbac009ec	-0.0014651394
218	0xb890ac14	-6.898507e-05
219	0x9ef089a7	-2.546792e-20
220	0x3ae02fcd	0.001710409
221	0xb5301c2d	-6.560611e-07
222	0xa6b28480	-1.2387145e-15
223	0xa3914a53	-1.5752409e-17
224	0xae10e70e	-3.2947027e-11
225	0x37182e87	9.070739e-06
226	0xb337fc76	-4.283762e-08
227	0xae2e4751	-3.962636e-11
228	0x3c240a42	0.010012211
229	0xba0185b8	-0.0004940885
230	0x95d793bc	-8.707089e-26
231	0xadddf4fe	-2.523359e-11
232	0xb2a58f80	-1.9273784e-08
233	0xb861f74c	-5.3874493e-05
234	0x8d00363d	-3.950833e-31
235	0xa954108b	-4.7087805e-14
236	0x9e849a88	-1.4039956e-20
237	0x3cd23113	0.025658166
238	0xb0a334be	-1.1874801e-09
239	0x2baa8e8e	1.2118793e-12
240	0xa3e8e72b	-2.5251394e-17
241	0xba242c09	-0.0006262665
242	0x96048d69	-1.0707496e-25
243	0x3b170ae0	0.0023047253
244	0x9ba3c10b	-2.709084e-22
245	0xb5bf7720	-1.4265279e-06
246	0xbad6120b	-0.0016332282
247	0x3c86cce9	0.01645513
248	0xbb339a37	-0.0027405152
249	0xb80b84da	-3.326391e-05
250	0xb5e0e06d	-1.6754617e-06
251	0xad922450	-1.6614404e-11
252	0x36b8ecef	5.51121e-06
253	0xaaaf3ec6	-3.1129803e-13
254	0x3c30fc2a	0.010802308
255	0xbac354d1	-0.0014902597

bn.weight f4 [50]
0	0x3db336a1	0.08750654
1	0x3dc44a6c	0.09584507
2	0x3ccbb4bc	0.024866454
3	0x3ae9456a	0.0017797176
4	0x3e899a18	0.26875377
5	0x3dd56a38	0.1042065
6	0xb6f30163	-7.242126e-06
7	0x3d45c923	0.048287522
8	0x3dd6967d	0.10477922
9	0xb93fef51	-0.00018304332
10	0x3d095e5b	0.03353725
11	0x3d246bef	0.040141996
12	0x3dc0830c	0.09399995
13	0x3d5e12f8	0.05421731
14	0x3d1be97b	0.03806446
15	0x3d265108	0.04060462
16	0x3e33e701	0.1756859
17	0x3dd52d83	0.10409071
18	0x3d628028	0.055298
19	0x3da851c3	0.0821872
20	0x3eca3565	0.39493862
21	0x3e200832	0.15628126
22	0x3ca92448	0.020647183
23	0x3d251a92	0.040308543
24	0x3af68c72	0.0018810167
25	0x3d667a15	0.05626877
26	0x3ce529c6	0.02797402
27	0x3d126a4a	0.035745896
28	0x3e84f729	0.25969818
29	0x3d993903	0.07481577
30	0xba68802e	-0.0008869198
31	0xb7ed9926	-2.8323917e-05
32	0x3d032fd5	0.032028038
33	0xba19b06d	-0.00058627763
34	0x37abac3a	2.0464988e-05
35	0x3d10c3a1	0.035342816
36	0x3dd35593	0.10319056
37	0x3d5e1fc5	0.054229517
38	0x3d2a7d2a	0.041623272
39	0x3d0dd010	0.034622252
40	0x3d9b33ad	0.07578216
41	0x3d5b0038	0.053467005
42	0x3708310c	8.117651e-06
43	0x3d3514f6	0.044209443
44	0x3ec9ada6	0.39390296
45	0x3e23b17b	0.15985672
46	0x3cfc1db8	0.03077589
47	0x3d44d99c	0.04805909
48	0x3d17e213	0.037080836
49	0x3d5c1c5f	0.053737994

bn.bias f4 [50]
0	0x343d6648	1.7639206e-07
1	0x324dbbee	1.1975301e-08
2	0xb2c9f94a	-2.3512843e-08
3	0x32ad1779	2.0150525e-08
4	0xb41ee12a	-1.4796811e-07
5	0xb3829146	-6.080022e-08
6	0x2eb15dc9	8.065688e-11
7	0xb284be50	-1.5453367e-08
8	0x34051b4e	1.2396524e-07
9	0xafb3a125	-3.267441e-10
10	0x3412291e	1.3612268e-07
11	0x3216e067	8.782172e-09
12	0x33774d3a	5.7579406e-08
13	0xb35b7192	-5.1093203e-08
14	0x33ae36a8	8.112448e-08
15	0xb1cf53ac	-6.0340053e-09
16	0xb4473cc3	-1.8555424e-07
17	0x3347a7c2	4.6485873e-08
18	0xb2e8b1e3	-2.7089248e-08
19	0x3307a5b0	3.158283e-08
20	0xb3412802	-4.49727e-08
21	0x33d34b82	9.839188e-08
22	0x329a9125	1.7993964e-08
23	0x336a4125	5.454162e-08
24	0x32714da2	1.4045698e-08
25	0xb2bb518a	-2.1806745e-08
26	0x3371289d	5.6149123e-08
27	0xb2c5f0b6	-2.3043281e-08
28	0x3401280c	1.202863e-07
29	0xb32c8542	-4.0168068e-08
30	0xb108db0d	-1.991512e-09
31	0xb02702e7	-6.075837e-10
32	0xb39c1c40	-7.269455e-08
33	0x2dab4544	1.947121e-11
34	0xafe7ee8f	-4.218816e-10
35	0xb310f498	-3.375007e-08
36	0x33f6e143	1.14962425e-07
37	0xb3990e22	-7.1271884e-08
38	0xb25b43a4	-1.2762857e-08
39	0xb224e481	-9.598012e-09
40	0xb42ced47	-1.6105069e-07
41	0x334fb266	4.8358196e-08
42	0x2f88fd6d	2.4918326e-10
43	0xaf0fe454	-1.3086893e-10
44	0x34a50883	3.0739838e-07
45	0x32c99629	2.3467765e-08
46	0xb3901278	-6.708882e-08
47	0x326aadb3	1.3660087e-08
48	0x32e235cc	2.6334327e-08
49	0x328094f4	1.4968897e-08

bn.running_mean f4 [50]
0	0xc0f152b3	-7.541345
1	0xbf4792b6	-0.7795824
2	0x40978e79	4.7361417
3	0xbcfa736c	-0.030572616
4	0xbd243507	-0.040089633
5	0x408267ed	4.0751863
6	0x40978e79	4.7361417
7	0xbcfa736c	-0.030572616
8	0xc0f35bfc	-7.6049786
9	0xbf48ec3f	-0.7848548
10	0x4099b1d8	4.8029594
11	0x391e0107	0.00015068437
12	0xbd4239f2	-0.047418542
13	0x4082467a	4.071103
14	0x4099b1d8	4.8029594
15	0x391e0107	0.00015068437
16	0xc0f4dd5e	-7.6520224
17	0xbf4b2297	-0.79349655
18	0x40a80802	5.2509775
19	0xbd13d237	-0.03608915
20	0xbd675d0d	-0.056485225
21	0x40823871	4.06939
22	0x40a80802	5.2509775
23	0xbd13d237	-0.03608915
24	0xc0edd73f	-7.432525
25	0xbf48d12e	-0.7844418
26	0x40a5ab55	5.1771646
27	0x3d0b877f	0.034064766
28	0x3d243507	0.040089633
29	0x408267ed	4.0751863
30	0x40a5ab55	5.1771646
31	0x3d0b877f	0.034064766
32	0xc0ef820b	-7.4846244
33	0xbf4959d2	-0.7865268
34	0x40a28935	5.079249
35	0x3c7c510b	0.0154001815
36	0x3d4239f2	0.047418542
37	0x4082467a	4.071103
38	0x40a28935	5.079249
39	0x3c7c510b	0.0154001815
40	0xc0f1d073	-7.5566955
41	0xbf4c07ca	-0.79699385
42	0x40a7b628	5.240986
43	0xbd2e6f2c	-0.04258649
44	0x3d675d0d	0.056485225
45	0x40823871	4.06939
46	0x40a7b628	5.240986
47	0xbd2e6f2c	-0.04258649
48	0xbe794599	-0.24342956
49	0xbde2e010	-0.11077893

bn.running_var f4 [50]
0	0x4192548f	18.291288
1	0x3f91236c	1.1338935
2	0x43a03f7a	320.4959
3	0x4153fbe8	13.249001
4	0x41e07708	28.05812
5	0x4022adf8	2.5418682
6	0x43a03f7a	320.4959
7	0x4153fbe8	13.249001
8	0x418fb9ba	17.965687
9	0x3f912663	1.133984
10	0x43a0b39b	321.40317
11	0x4152867c	13.157833
12	0x41e81fb5	29.015482
13	0x4025e504	2.592103
14	0x43a0b39b	321.40317
15	0x4152867c	13.157833
16	0x418d7e8a	17.686787
17	0x3f91afd7	1.1381787
18	0x43a06af8	320.8357
19	0x41550882	13.314577
20	0x41f1d67a	30.229725
21	0x402d1acd	2.7047608
22	0x43a06af8	320.8357
23	0x41550882	13.314577
24	0x4195c09c	18.719048
25	0x3f92fd78	1.1483603
26	0x439cf3a9	313.9036
27	0x4145f23e	12.371641
28	0x41e07708	28.05812
29	0x4022adf8	2.5418682
30	0x439cf3a9	313.9036
31	0x4145f23e	12.371641
32	0x4192a3ea	18.330036
33	0x3f9276ca	1.1442502
34	0x43a1b838	323.4392
35	0x414e20c0	12.882996
36	0x41e81fb5	29.015482
37	0x4025e504	2.592103
38	0x43a1b838	323.4392
39	0x414e20c0	12.882996
40	0x418e3449	17.77553
41	0x3f926d77	1.1439656
42	0x43a5a461	331.2842
43	0x41500daf	13.003341
44	0x41f1d67a	30.229725
45	0x402d1acd	2.7047608
46	0x43a5a461	331.2842
47	0x41500daf	13.003341
48	0x3ee4248c	0.44559133
49	0x3eac872e	0.33696884

bn2.weight f4 [400]
0	0x8001a239	-1.5003e-40
1	0x0005738d	5.00629e-40
2	0x00048049	4.13362e-40
3	0x3db89f41	0.0901475
4	0x0005406a	4.82285e-40
5	0x0007a3d9	7.01626e-40
6	0x8001bd56	-1.59756e-40
7	0x8004e1b3	-4.48308e-40
8	0x3d5d3372	0.05400414
9	0x80004467	-2.4538e-41
10	0x3d9f89fe	0.07789992
11	0x8002a845	-2.44035e-40
12	0x3e0a5117	0.13507496
13	0x000713d1	6.49957e-40
14	0x00069fc9	6.08333e-40
15	0x3e0f35f3	0.13985424
16	0x8001e5a9	-1.74222e-40
17	0x3ae50e7b	0.0017475629
18	0x80012d5e	-1.0811e-40
19	0x0058394b	8.102077e-39
20	0x0007cc94	7.16237e-40
21	0x0005f6fb	5.47777e-40
22	0x0007e3f9	7.2463e-40
23	0x0007ecdf	7.27822e-40
24	0x3d4534f5	0.048146207
25	0x8007a2fc	-7.01316e-40
26	0x000129be	1.0681e-40
27	0x0007e461	7.24775e-40
28	0x800696a1	-6.05048e-40
29	0x80078ba6	-6.92945e-40
30	0x00012a5f	1.07035e-40
31	0x0002608e	2.18308e-40
32	0x3da35a54	0.07976213
33	0x3d13468d	0.035955954
34	0x8001ee6c	-1.77365e-40
35	0x0002af4a	2.46553e-40
36	0x0004f259	4.5428e-40
37	0x3e1e005f	0.15429829
38	0x0001db8c	1.70594e-40
39	0x0007814e	6.89234e-40
40	0x8002fc64	-2.74212e-40
41	0x80031cae	-2.85795e-40
42	0x80010416	-9.3301e-41
43	0x3dc9ec52	0.09859528
44	0x8003c48b	-3.46013e-40
45	0x3e182fdb	0.14862005
46	0x0007ebd2	7.27445e-40
47	0x8000881b	-4.8825e-41
48	0x00012628	1.05523e-40
49	0x80019698	-1.45858e-40
50	0x800603a4	-5.52319e-40
51	0x80016282	-1.27173e-40
52	0x0004e428	4.49189e-40
53	0x3e014e3e	0.12627503
54	0x8001dec0	-1.71743e-40
55	0x3be13a9f	0.0068734433
56	0x8007dc59	-7.21894e-40
57	0x00054898	4.85219e-40
58	0x3dfbde2f	0.122982375
59	0x3df6a07e	0.1204233
60	0x000280cb	2.29873e-40
61	0x800704c3	-6.44557e-40
62	0x3dbf293e	0.09334038
63	0x8002c0c7	-2.52826e-40
64	0x0001e237	1.72986e-40
65	0x0001635c	1.27479e-40
66	0x3df28a00	0.11842728
67	0x80037603	-3.17841e-40
68	0x0003fedf	3.66937e-40
69	0x80031087	-2.81435e-40
70	0x3e0dd9e0	0.13852644
71	0x0004bd44	4.35238e-40
72	0x00030e37	2.80606e-40
73	0x80015f78	-1.26083e-40
74	0x3dc69ccd	0.09697876
75	0x2e973f84	6.8779676e-11
76	0x80058990	-5.08526e-40
77	0x0000c1cf	6.9525e-41
78	0x8004d749	-4.44572e-40
79	0x00026a0d	2.21715e-40
80	0x3df7a8d7	0.120927505
81	0x97c0e7c2	-1.2466213e-24
82	0x8004dd91	-4.46825e-40
83	0x3e0631b9	0.13104905
84	0x80065dc0	-5.84644e-40
85	0x80004535	-2.4827e-41
86	0x0000b1d7	6.3797e-41
87	0x800378ff	-3.18912e-40
88	0x00081068	7.4057e-40
89	0x80035a64	-3.07933e-40
90	0x80042234	-3.79612e-40
91	0x8004ff71	-4.58977e-40
92	0x3def2f3c	0.11678931
93	0x80075d08	-6.76222e-40
94	0x800184e8	-1.39513e-40
95	0x3da26c69	0.07930834
96	0x000855d0	7.65468e-40
97	0x0000ab33	6.1415e-41
98	0x0776796a	1.8542663e-34
99	0x3df02071	0.11724938
100	0x0007b4de	7.07731e-40
101	0x000539fb	4.79977e-40
102	0x0007b157	7.06466e-40
103	0x00039316	3.28271e-40
104	0x00067cf3	5.95836e-40
105	0x20cfe31b	3.521745e-19
106	0x8004f727	-4.56004e-40
107	0x8005a167	-5.17078e-40
108	0x8006d2a1	-6.26572e-40
109	0x800643b6	-5.75303e-40
110	0x8006031e	-5.52131e-40
111	0x8000b986	-6.6553e-41
112	0x34724253	2.2562135e-07
113	0x80064eed	-5.79326e-40
114	0x3e196420	0.14979601
115	0xb7348595	-1.0759938e-05
116	0x80083061	-7.52039e-40
117	0x00041fb5	3.78716e-40
118	0x0004f33c	4.54598e-40
119	0x0002b512	2.48627e-40
120	0x0007aa9d	7.04053e-40
121	0x3dec1270	0.11526954
122	0x000114af	9.9255e-41
123	0x8007e3ce	-7.2457e-40
124	0x80083837	-7.5485e-40
125	0x8007f00b	-7.2896e-40
126	0x800383e7	-3.22824e-40
127	0x3bb06586	0.0053831963
128	0x0001f4aa	1.79604e-40
129	0x3df423c5	0.11920885
130	0x80043aef	-3.88483e-40
131	0x3d9017e2	0.07035805
132	0x8003c189	-3.44934e-40
133	0x85223673	-7.627204e-36
134	0x000736ff	6.62577e-40
135	0x8008314c	-7.52368e-40
136	0x00080e0b	7.39722e-40
137	0x00057e6d	5.0453e-40
138	0x0005ed93	5.44403e-40
139	0x0006dc2e	6.29999e-40
140	0x8001d91b	-1.69718e-40
141	0x80075a7f	-6.75312e-40
142	0x3d0fadc8	0.03507784
143	0x3da59581	0.08085156
144	0x80471ff6	-6.531786e-39
145	0x80036984	-3.13358e-40
146	0x8007b2aa	-7.06941e-40
147	0x8005e558	-5.4145e-40
148	0x378ecd0b	1.70232e-05
149	0x0006169e	5.59126e-40
150	0x80032049	-2.87088e-40
151	0x00069c3e	6.07062e-40
152	0x8005a0e0	-5.16889e-40
153	0x8007e5c4	-7.25273e-40
154	0x80026fc1	-2.23761e-40
155	0x8006c8d8	-6.23062e-40
156	0x80063bd6	-5.72478e-40
157	0x000839ed	7.55464e-40
158	0x802e4119	-4.247785e-39
159	0x00046445	4.03312e-40
160	0x80005d79	-3.3532e-41
161	0x80000c8b	-4.5e-42
162	0x00653b59	9.296675e-39
163	0x3dfd8473	0.12378778
164	0x8006b871	-6.17178e-40
165	0x3daae624	0.08344677
166	0x0001ba84	1.58745e-40
167	0x889bbf7b	-9.37374e-34
168	0x8000fb17	-9.0074e-41
169	0x80014013	-1.14821e-40
170	0x3daf77b4	0.085677534
171	0x3e1c883e	0.15286347
172	0x8c1b4b86	-1.1963493e-31
173	0x800169ce	-1.29791e-40
174	0x3e126cf4	0.14299375
175	0x80039268	-3.28027e-40
176	0x3e1e41d7	0.15454803
177	0x3dcfbca8	0.10143405
178	0x000660d7	5.85753e-40
179	0x3dd56458	0.1041953
180	0x80019a15	-1.4711e-40
181	0x3e3e56a3	0.18587737
182	0x3a6082e8	0.00085644284
183	0x0007d1e4	7.18143e-40
184	0x2db32bfb	2.0369475e-11
185	0x00076ed8	6.82612e-40
186	0x8000f782	-8.8789e-41
187	0x3da8e61f	0.08247017
188	0x000663c9	5.86809e-40
189	0x3e260cf3	0.16215877
190	0x0006caf6	6.23822e-40
191	0x0007c36f	7.12957e-40
192	0x36aa826a	5.081577e-06
193	0x3d60e217	0.054903116
194	0x8000285d	-1.448e-41
195	0x8003c518	-3.4621e-40
196	0x3e0b6974	0.13614446
197	0x0001686d	1.29296e-40
198	0x3dfac9f5	0.122455515
199	0x80008c1b	-5.026e-41
200	0x000663d1	5.8682e-40
201	0x8007cad2	-7.15607e-40
202	0x8005b24f	-5.23143e-40
203	0x8001769a	-1.34382e-40
204	0x00051bb9	4.69122e-40
205	0x000452e6	3.9708e-40
206	0x80026f82	-2.23672e-40
207	0x8002d77f	-2.60976e-40
208	0x8002f7d0	-2.7257e-40
209	0x3d8af633	0.0678524
210	0x00044997	3.93741e-40
211	0x0007503f	6.71635e-40
212	0x800533f2	-4.77812e-40
213	0x00065095	5.7992e-40
214	0x00041830	3.76019e-40
215	0xb4631b7e	-2.1151024e-07
216	0x80027bde	-2.28106e-40
217	0x0007ee0c	7.28244e-40
218	0x80041410	-3.74539e-40
219	0x3d8c4993	0.06849971
220	0x00046b24	4.05777e-40
221	0x80021b65	-1.93498e-40
222	0x00078d15	6.93459e-40
223	0x3e0739bb	0.13205616
224	0x0000395c	2.0577e-41
225	0x80027ec2	-2.29143e-40
226	0x8000d900	-7.7845e-41
227	0x8000b9c8	-6.6646e-41
228	0x3dfaca97	0.12245672
229	0x0001c876	1.63747e-40
230	0x80005d3d	-3.3448e-41
231	0x3d8ea763	0.0696552
232	0x00052470	4.72249e-40
233	0x80054d39	-4.8688e-40
234	0x80080377	-7.35927e-40
235	0x3e16e4df	0.14735745
236	0x00071f32	6.54039e-40
237	0x800064bc	-3.6137e-41
238	0x000742c6	6.66802e-40
239	0x8003d1e3	-3.508e-40
240	0x800235ab	-2.02923e-40
241	0x2dfb951b	2.8601612e-11
242	0x00072fff	6.60066e-40
243	0x8007d08b	-7.1766e-40
244	0x000777b8	6.85795e-40
245	0x0002ba52	2.5051e-40
246	0x3e1d992b	0.1539046
247	0x3e079d43	0.13243584
248	0x0000c464	7.0452e-41
249	0x00017638	1.34244e-40
250	0x8000f9b0	-8.9571e-41
251	0x8008310e	-7.52281e-40
252	0x3d9fbc5a	0.07799597
253	0x0000c986	7.2293e-41
254	0x8003b165	-3.39144e-40
255	0x00017abe	1.35867e-40

bn2.bias f4 [400]
0	0x2d426a1e	1.1051186e-11
1	0x9c67d39f	-7.6705e-22
2	0x99cc316c	-2.1113067e-23
3	0x3bf6167d	0.007510005
4	0x00227f02	3.167969e-39
5	0xb7c913ac	-2.3970228e-05
6	0x38a13f2d	7.688846e-05
7	0x9d95d0d0	-3.965588e-21
8	0x3c02eeca	0.007991502
9	0x810f0de5	-2.627492e-38
10	0xbcfd4fbb	-0.030921808
11	0x0882f0c4	7.880694e-34
12	0x3be2aafb	0.006917355
13	0x800f2a76	-1.392765e-39
14	0x841c41ab	-1.8367865e-36
15	0x3b2f478f	0.0026745533
16	0xac883f2d	-3.8723664e-12
17	0x39e6dc7d	0.00044033295
18	0x8013d632	-1.821713e-39
19	0xa6eb723a	-1.6337362e-15
20	0x8310be2a	-4.2536094e-37
21	0x80200aea	-2.942651e-39
22	0xb99cfbfc	-0.00029942382
23	0x8fa48938	-1.6224503e-29
24	0xbc32e72b	-0.010919373
25	0x8000a737	-5.9985e-41
26	0xa9ef95d4	-1.0639723e-13
27	0x8007bfdc	-7.11675e-40
28	0x8005a819	-5.1948e-40
29	0x900961fc	-2.709397e-29
30	0x826f31f8	-1.7573287e-37
31	0x025ba71b	1.6137536e-37
32	0xbce526ab	-0.02797254
33	0x3c33822e	0.01095633
34	0x8087c252	-1.2467501e-38
35	0x8002cfc8	-2.58209e-40
36	0x80805dc1	-1.1788576e-38
37	0xba9b350e	-0.0011841373
38	0x8a5976d0	-1.0470516e-32
39	0x800732c1	-6.61056e-40
40	0x8415b0e5	-1.7596092e-36
41	0x9c6029a5	-7.4169207e-22
42	0x0dd8b335	1.335517e-30
43	0xbc9f4f64	-0.019447036
44	0x89a79e3a	-4.0352583e-33
45	0xba953ca6	-0.0011385872
46	0xb6b7ce48	-5.4778393e-06
47	0x8003d316	-3.5123e-40
48	0x9ca82944	-1.1127974e-21
49	0xa62ca68c	-5.99002e-16
50	0xb3014039	-3.0093563e-08
51	0xb84f7277	-4.945925e-05
52	0x2d83f256	1.5000595e-11
53	0xb9ef18ba	-0.00045604055
54	0x801b898c	-2.528901e-39
55	0x3abd1ac8	0.0014427537
56	0x80058e3b	-5.102e-40
57	0x98aec38a	-4.517539e-24
58	0x3d380459	0.04492602
59	0xb9d3d6c8	-0.0004040508
60	0x8e99539b	-3.779792e-30
61	0x801c06f7	-2.573892e-39
62	0xbb4780fe	-0.0030441876
63	0x8002fac7	-2.73633e-40
64	0xa717564a	-2.1002237e-15
65	0xb970868a	-0.00022938303
66	0x3aabc35d	0.0013104487
67	0x80034c1e	-3.02812e-40
68	0x9cb5d448	-1.2032449e-21
69	0x80110bc9	-1.565431e-39
70	0x3cd1b62f	0.025599567
71	0xb570ff66	-8.977862e-07
72	0x84874b00	-3.1807224e-36
73	0x943fb446	-9.678588e-27
74	0x3be478bc	0.0069724005
75	0xaf11f9ac	-1.3276374e-10
76	0x902ceb93	-3.41025e-29
77	0x9e0a7325	-7.3294705e-21
78	0xb3a0fb6a	-7.4963125e-08
79	0xace81c0b	-6.59695e-12
80	0xbab19e25	-0.0013551159
81	0x36a2809c	4.8429483e-06
82	0xb660c87c	-3.3495298e-06
83	0xba695b7d	-0.00089018774
84	0x0dbd0227	1.1648542e-30
85	0x97ef153c	-1.5450373e-24
86	0x80014939	-1.18103e-40
87	0x9c218bb5	-5.3451e-22
88	0x9939bf22	-9.602875e-24
89	0xb8b26ade	-8.507607e-05
90	0x820b13b6	-1.0217764e-37
91	0xa0d2d95b	-3.5719218e-19
92	0xba87beb9	-0.0010356522
93	0x0b5f1508	4.296406e-32
94	0x1f48c963	4.251823e-20
95	0x3c745ab5	0.014914204
96	0xa83eb5d5	-1.0586547e-14
97	0x910bbc7e	-1.102325e-28
98	0xb663b0b4	-3.392849e-06
99	0xbd975711	-0.073896535
100	0xa8f1a549	-2.6828056e-14
101	0x8656c73d	-4.0395304e-35
102	0xa311a2f9	-7.8949766e-18
103	0xb7e007a4	-2.6706439e-05
104	0x8f6e558f	-1.1750784e-29
105	0xac7398e5	-3.461725e-12
106	0x01827bb1	4.7931946e-38
107	0xa9ba27c6	-8.266959e-14
108	0x80019309	-1.44582e-40
109	0x83908027	-8.492982e-37
110	0x94c93303	-2.0315934e-26
111	0x898df548	-3.4175177e-33
112	0xb37f5c41	-5.945572e-08
113	0x8001d462	-1.68024e-40
114	0xbd1d2157	-0.038361873
115	0x3913ce5a	0.00014095884
116	0xb6a9b783	-5.057956e-06
117	0x0d1119e6	4.471275e-31
118	0xb86cea73	-5.6485133e-05
119	0x2674edd1	8.4976807e-16
120	0x2711046b	2.0125187e-15
121	0xb91888b8	-0.00014546781
122	0xa8d5d385	-2.3739482e-14
123	0x8bc7fcde	-7.7032484e-32
124	0xa40fa3d3	-3.1146947e-17
125	0x8b7a51ba	-4.8209733e-32
126	0x9fb846f1	-7.8044394e-20
127	0x3ae2c4a7	0.0017301039
128	0x8007230d	-6.55422e-40
129	0xbba7cd5b	-0.005120916
130	0x8818a7ba	-4.5938e-34
131	0xbc617b4d	-0.013762307
132	0x8078a066	-1.10778e-38
133	0xba4ff504	-0.00079329335
134	0x8004e3d6	-4.49074e-40
135	0x95b4a072	-7.295456e-26
136	0xb68448f9	-3.9424017e-06
137	0x0132fb15	3.287358e-38
138	0x09cfacca	4.9995927e-33
139	0x82bfc3b1	-2.817725e-37
140	0xa49efbe8	-6.894832e-17
141	0xb234a3b8	-1.0514604e-08
142	0xbc7250fc	-0.014789816
143	0x3b6286a9	0.0034565127
144	0xaf756c43	-2.2321082e-10
145	0x8db19a1c	-1.0945568e-30
146	0x8000d32f	-7.5758e-41
147	0x85095837	-6.4579116e-36
148	0x3403b64e	1.2266648e-07
149	0x279856d8	4.228263e-15
150	0x9c10809a	-4.7811817e-22
151	0x8b049e7f	-2.5541514e-32
152	0xb9c406da	-0.00037389138
153	0x85a8edff	-1.588607e-35
154	0x87ac4abe	-2.5923613e-34
155	0xa8831343	-1.4552275e-14
156	0x8129db26	-3.119763e-38
157	0x80007358	-4.1378e-41
158	0xb92c065e	-0.0001640557
159	0x9590f120	-5.8541565e-26
160	0x8382a9f4	-7.679733e-37
161	0x997db680	-1.3116649e-23
162	0xb9945ff1	-0.00028300242
163	0x3d09fa14	0.03368576
164	0x80003360	-1.843e-41
165	0xbd1eacb3	-0.038738918
166	0xa1010498	-4.371298e-19
167	0xba0c17ee	-0.0005344142
168	0x800adbdc	-9.97226e-40
169	0x3a832320	0.0010004975
170	0xbcd7ee24	-0.026358671
171	0xbae94161	-0.0017795974
172	0xb8ba06c0	-8.8704284e-05
173	0xaa874516	-2.4028755e-13
174	0xbabfd054	-0.001463423
175	0x85286e0b	-7.919534e-36
176	0xbd30ebb5	-0.043193538
177	0xbd848f15	-0.06472603
178	0xaba403da	-1.165397e-12
179	0x3a030175	0.00049974705
180	0x820eb210	-1.0483614e-37
181	0xbd204c04	-0.039134994
182	0x395d4f64	0.00021105778
183	0x88973b67	-9.101947e-34
184	0xb05374fd	-7.6927603e-10
185	0x0a389ac4	8.888386e-33
186	0x8002149e	-1.91067e-40
187	0x3937efcb	0.0001754157
188	0xba0ea2cc	-0.0005441129
189	0xbad44c0d	-0.0016196981
190	0x8006172b	-5.59324e-40
191	0x89f5f32c	-5.9210282e-33
192	0xb826805f	-3.969704e-05
193	0xbd9d24bb	-0.076730214
194	0xa55754a7	-1.8676959e-16
195	0xad1d271a	-8.933099e-12
196	0xbd2f7a29	-0.04284111
197	0x9dbf011a	-5.055842e-21
198	0x3ca71130	0.020393938
199	0x81ddc318	-8.1462524e-38
200	0x827088df	-1.7671695e-37
201	0x800ab20b	-9.82225e-40
202	0x80041ff1	-3.788e-40
203	0xaf952b7a	-2.7133834e-10
204	0x000033b3	1.8546e-41
205	0x05b6e918	1.7200823e-35
206	0x8e553f30	-2.62847e-30
207	0x98b6537a	-4.7130187e-24
208	0x807dfc99	-1.1570052e-38
209	0xbc300077	-0.010742298
210	0x805924fa	-8.186624e-39
211	0xa3a1e95a	-1.7554483e-17
212	0x93a8837b	-4.2538812e-27
213	0x91e18274	-3.5579139e-28
214	0x19c848dd	2.0708945e-23
215	0xb109fc75	-2.007963e-09
216	0x9b1d306c	-1.3002382e-22
217	0x80bc7a78	-1.7309007e-38
218	0xa729d594	-2.3569242e-15
219	0x3cb3fd0d	0.02197125
220	0x20fe4954	4.3077798e-19
221	0xa4a60d79	-7.201385e-17
222	0xb7fb9297	-2.9989793e-05
223	0x3caad637	0.020854099
224	0x9f99af99	-6.508852e-20
225	0xb818be62	-3.6416932e-05
226	0x8007b7bb	-7.08759e-40
227	0xadbbb15a	-2.1338199e-11
228	0xbd9a9fa6	-0.07549982
229	0xb2168a11	-8.762542e-09
230	0x83acebd2	-1.0163393e-36
231	0xbcac478c	-0.02103021
232	0x8109ad73	-2.528737e-38
233	0x800db798	-1.259722e-39
234	0x99ee3473	-2.4629807e-23
235	0xbaa7d021	-0.0012803116
236	0xa9033db1	-2.9141352e-14
237	0x80267fe4	-3.535627e-39
238	0xa76b799c	-3.2678726e-15
239	0x8001658f	-1.28268e-40
240	0xb6df862d	-6.661538e-06
241	0xb13382c6	-2.6122264e-09
242	0x900fb4bf	-2.834102e-29
243	0xac547e22	-3.019703e-12
244	0x81b0743d	-6.4818983e-38
245	0x88ba0474	-1.1195515e-33
246	0xba4ddb10	-0.0007852772
247	0xbabafae2	-0.0014265443
248	0xa186cd7a	-9.134582e-19
249	0x80a1c36d	-1.485562e-38
250	0x8994dff2	-3.58403e-33
251	0x8006049e	-5.5267e-40
252	0xbcef8716	-0.029239219
253	0x80001bc6	-9.963e-42
254	0x0000290b	1.4723e-41
255	0xa3b96807	-2.0101797e-17
